node {
  name: "global_step/Initializer/zeros"
  op: "Const"
  attr {
    key: "_class"
    value {
      list {
        s: "loc:@global_step"
      }
    }
  }
  attr {
    key: "_output_shapes"
    value {
      list {
        shape {
        }
      }
    }
  }
  attr {
    key: "dtype"
    value {
      type: DT_INT64
    }
  }
  attr {
    key: "value"
    value {
      tensor {
        dtype: DT_INT64
        tensor_shape {
        }
        int64_val: 0
      }
    }
  }
}
node {
  name: "global_step"
  op: "VariableV2"
  attr {
    key: "_class"
    value {
      list {
        s: "loc:@global_step"
      }
    }
  }
  attr {
    key: "_output_shapes"
    value {
      list {
        shape {
        }
      }
    }
  }
  attr {
    key: "container"
    value {
      s: ""
    }
  }
  attr {
    key: "dtype"
    value {
      type: DT_INT64
    }
  }
  attr {
    key: "shape"
    value {
      shape {
      }
    }
  }
  attr {
    key: "shared_name"
    value {
      s: ""
    }
  }
}
node {
  name: "global_step/Assign"
  op: "Assign"
  input: "global_step"
  input: "global_step/Initializer/zeros"
  attr {
    key: "T"
    value {
      type: DT_INT64
    }
  }
  attr {
    key: "_class"
    value {
      list {
        s: "loc:@global_step"
      }
    }
  }
  attr {
    key: "_output_shapes"
    value {
      list {
        shape {
        }
      }
    }
  }
  attr {
    key: "use_locking"
    value {
      b: true
    }
  }
  attr {
    key: "validate_shape"
    value {
      b: true
    }
  }
}
node {
  name: "global_step/read"
  op: "Identity"
  input: "global_step"
  attr {
    key: "T"
    value {
      type: DT_INT64
    }
  }
  attr {
    key: "_class"
    value {
      list {
        s: "loc:@global_step"
      }
    }
  }
  attr {
    key: "_output_shapes"
    value {
      list {
        shape {
        }
      }
    }
  }
}
node {
  name: "global_step/IsVariableInitialized"
  op: "IsVariableInitialized"
  input: "global_step"
  attr {
    key: "_class"
    value {
      list {
        s: "loc:@global_step"
      }
    }
  }
  attr {
    key: "_output_shapes"
    value {
      list {
        shape {
        }
      }
    }
  }
  attr {
    key: "dtype"
    value {
      type: DT_INT64
    }
  }
}
node {
  name: "global_step/cond/Switch"
  op: "Switch"
  input: "global_step/IsVariableInitialized"
  input: "global_step/IsVariableInitialized"
  attr {
    key: "T"
    value {
      type: DT_BOOL
    }
  }
  attr {
    key: "_output_shapes"
    value {
      list {
        shape {
        }
        shape {
        }
      }
    }
  }
}
node {
  name: "global_step/cond/switch_t"
  op: "Identity"
  input: "global_step/cond/Switch:1"
  attr {
    key: "T"
    value {
      type: DT_BOOL
    }
  }
  attr {
    key: "_output_shapes"
    value {
      list {
        shape {
        }
      }
    }
  }
}
node {
  name: "global_step/cond/switch_f"
  op: "Identity"
  input: "global_step/cond/Switch"
  attr {
    key: "T"
    value {
      type: DT_BOOL
    }
  }
  attr {
    key: "_output_shapes"
    value {
      list {
        shape {
        }
      }
    }
  }
}
node {
  name: "global_step/cond/pred_id"
  op: "Identity"
  input: "global_step/IsVariableInitialized"
  attr {
    key: "T"
    value {
      type: DT_BOOL
    }
  }
  attr {
    key: "_output_shapes"
    value {
      list {
        shape {
        }
      }
    }
  }
}
node {
  name: "global_step/cond/read"
  op: "Identity"
  input: "global_step/cond/read/Switch:1"
  attr {
    key: "T"
    value {
      type: DT_INT64
    }
  }
  attr {
    key: "_output_shapes"
    value {
      list {
        shape {
        }
      }
    }
  }
}
node {
  name: "global_step/cond/read/Switch"
  op: "RefSwitch"
  input: "global_step"
  input: "global_step/cond/pred_id"
  attr {
    key: "T"
    value {
      type: DT_INT64
    }
  }
  attr {
    key: "_class"
    value {
      list {
        s: "loc:@global_step"
      }
    }
  }
  attr {
    key: "_output_shapes"
    value {
      list {
        shape {
        }
        shape {
        }
      }
    }
  }
}
node {
  name: "global_step/cond/Switch_1"
  op: "Switch"
  input: "global_step/Initializer/zeros"
  input: "global_step/cond/pred_id"
  attr {
    key: "T"
    value {
      type: DT_INT64
    }
  }
  attr {
    key: "_class"
    value {
      list {
        s: "loc:@global_step"
      }
    }
  }
  attr {
    key: "_output_shapes"
    value {
      list {
        shape {
        }
        shape {
        }
      }
    }
  }
}
node {
  name: "global_step/cond/Merge"
  op: "Merge"
  input: "global_step/cond/Switch_1"
  input: "global_step/cond/read"
  attr {
    key: "N"
    value {
      i: 2
    }
  }
  attr {
    key: "T"
    value {
      type: DT_INT64
    }
  }
  attr {
    key: "_output_shapes"
    value {
      list {
        shape {
        }
        shape {
        }
      }
    }
  }
}
node {
  name: "global_step/add/y"
  op: "Const"
  attr {
    key: "_output_shapes"
    value {
      list {
        shape {
        }
      }
    }
  }
  attr {
    key: "dtype"
    value {
      type: DT_INT64
    }
  }
  attr {
    key: "value"
    value {
      tensor {
        dtype: DT_INT64
        tensor_shape {
        }
        int64_val: 0
      }
    }
  }
}
node {
  name: "global_step/add"
  op: "Add"
  input: "global_step/cond/Merge"
  input: "global_step/add/y"
  attr {
    key: "T"
    value {
      type: DT_INT64
    }
  }
  attr {
    key: "_output_shapes"
    value {
      list {
        shape {
        }
      }
    }
  }
}
node {
  name: "Const"
  op: "Const"
  device: "/device:CPU:0"
  attr {
    key: "_output_shapes"
    value {
      list {
        shape {
          dim {
            size: 1
          }
        }
      }
    }
  }
  attr {
    key: "dtype"
    value {
      type: DT_STRING
    }
  }
  attr {
    key: "value"
    value {
      tensor {
        dtype: DT_STRING
        tensor_shape {
          dim {
            size: 1
          }
        }
        string_val: "./chars_seg/DNN_data/train.tfrecords"
      }
    }
  }
}
node {
  name: "flat_filenames/shape"
  op: "Const"
  device: "/device:CPU:0"
  attr {
    key: "_output_shapes"
    value {
      list {
        shape {
          dim {
            size: 1
          }
        }
      }
    }
  }
  attr {
    key: "dtype"
    value {
      type: DT_INT32
    }
  }
  attr {
    key: "value"
    value {
      tensor {
        dtype: DT_INT32
        tensor_shape {
          dim {
            size: 1
          }
        }
        int_val: -1
      }
    }
  }
}
node {
  name: "flat_filenames"
  op: "Reshape"
  input: "Const"
  input: "flat_filenames/shape"
  device: "/device:CPU:0"
  attr {
    key: "T"
    value {
      type: DT_STRING
    }
  }
  attr {
    key: "Tshape"
    value {
      type: DT_INT32
    }
  }
  attr {
    key: "_output_shapes"
    value {
      list {
        shape {
          dim {
            size: 1
          }
        }
      }
    }
  }
}
node {
  name: "TensorSliceDataset"
  op: "TensorSliceDataset"
  input: "flat_filenames"
  device: "/device:CPU:0"
  attr {
    key: "Toutput_types"
    value {
      list {
        type: DT_STRING
      }
    }
  }
  attr {
    key: "_output_shapes"
    value {
      list {
        shape {
        }
      }
    }
  }
  attr {
    key: "output_shapes"
    value {
      list {
        shape {
        }
      }
    }
  }
}
node {
  name: "FlatMapDataset"
  op: "FlatMapDataset"
  input: "TensorSliceDataset"
  device: "/device:CPU:0"
  attr {
    key: "Targuments"
    value {
      list {
      }
    }
  }
  attr {
    key: "_output_shapes"
    value {
      list {
        shape {
        }
      }
    }
  }
  attr {
    key: "f"
    value {
      func {
        name: "__inference_Dataset_flat_map_read_one_file_1106"
      }
    }
  }
  attr {
    key: "output_shapes"
    value {
      list {
        shape {
        }
      }
    }
  }
  attr {
    key: "output_types"
    value {
      list {
        type: DT_STRING
      }
    }
  }
}
node {
  name: "count"
  op: "Const"
  device: "/device:CPU:0"
  attr {
    key: "_output_shapes"
    value {
      list {
        shape {
        }
      }
    }
  }
  attr {
    key: "dtype"
    value {
      type: DT_INT64
    }
  }
  attr {
    key: "value"
    value {
      tensor {
        dtype: DT_INT64
        tensor_shape {
        }
        int64_val: -1
      }
    }
  }
}
node {
  name: "RepeatDataset"
  op: "RepeatDataset"
  input: "FlatMapDataset"
  input: "count"
  device: "/device:CPU:0"
  attr {
    key: "_output_shapes"
    value {
      list {
        shape {
        }
      }
    }
  }
  attr {
    key: "output_shapes"
    value {
      list {
        shape {
        }
      }
    }
  }
  attr {
    key: "output_types"
    value {
      list {
        type: DT_STRING
      }
    }
  }
}
node {
  name: "num_parallel_calls"
  op: "Const"
  device: "/device:CPU:0"
  attr {
    key: "_output_shapes"
    value {
      list {
        shape {
        }
      }
    }
  }
  attr {
    key: "dtype"
    value {
      type: DT_INT32
    }
  }
  attr {
    key: "value"
    value {
      tensor {
        dtype: DT_INT32
        tensor_shape {
        }
        int_val: 100
      }
    }
  }
}
node {
  name: "ParallelMapDataset"
  op: "ParallelMapDataset"
  input: "RepeatDataset"
  input: "num_parallel_calls"
  device: "/device:CPU:0"
  attr {
    key: "Targuments"
    value {
      list {
      }
    }
  }
  attr {
    key: "_output_shapes"
    value {
      list {
        shape {
        }
      }
    }
  }
  attr {
    key: "f"
    value {
      func {
        name: "__inference_Dataset_map__parser_function_1126"
      }
    }
  }
  attr {
    key: "output_shapes"
    value {
      list {
        shape {
          dim {
            size: 20
          }
          dim {
            size: 20
          }
          dim {
            size: 1
          }
        }
        shape {
        }
      }
    }
  }
  attr {
    key: "output_types"
    value {
      list {
        type: DT_HALF
        type: DT_INT64
      }
    }
  }
  attr {
    key: "preserve_cardinality"
    value {
      b: false
    }
  }
  attr {
    key: "sloppy"
    value {
      b: false
    }
  }
  attr {
    key: "use_inter_op_parallelism"
    value {
      b: true
    }
  }
}
node {
  name: "batch_size"
  op: "Const"
  device: "/device:CPU:0"
  attr {
    key: "_output_shapes"
    value {
      list {
        shape {
        }
      }
    }
  }
  attr {
    key: "dtype"
    value {
      type: DT_INT64
    }
  }
  attr {
    key: "value"
    value {
      tensor {
        dtype: DT_INT64
        tensor_shape {
        }
        int64_val: 100
      }
    }
  }
}
node {
  name: "drop_remainder"
  op: "Const"
  device: "/device:CPU:0"
  attr {
    key: "_output_shapes"
    value {
      list {
        shape {
        }
      }
    }
  }
  attr {
    key: "dtype"
    value {
      type: DT_BOOL
    }
  }
  attr {
    key: "value"
    value {
      tensor {
        dtype: DT_BOOL
        tensor_shape {
        }
        bool_val: false
      }
    }
  }
}
node {
  name: "BatchDatasetV2"
  op: "BatchDatasetV2"
  input: "ParallelMapDataset"
  input: "batch_size"
  input: "drop_remainder"
  device: "/device:CPU:0"
  attr {
    key: "_output_shapes"
    value {
      list {
        shape {
        }
      }
    }
  }
  attr {
    key: "output_shapes"
    value {
      list {
        shape {
          dim {
            size: -1
          }
          dim {
            size: 20
          }
          dim {
            size: 20
          }
          dim {
            size: 1
          }
        }
        shape {
          dim {
            size: -1
          }
        }
      }
    }
  }
  attr {
    key: "output_types"
    value {
      list {
        type: DT_HALF
        type: DT_INT64
      }
    }
  }
  attr {
    key: "parallel_copy"
    value {
      b: false
    }
  }
}
node {
  name: "buffer_size"
  op: "Const"
  device: "/device:CPU:0"
  attr {
    key: "_output_shapes"
    value {
      list {
        shape {
        }
      }
    }
  }
  attr {
    key: "dtype"
    value {
      type: DT_INT64
    }
  }
  attr {
    key: "value"
    value {
      tensor {
        dtype: DT_INT64
        tensor_shape {
        }
        int64_val: 100
      }
    }
  }
}
node {
  name: "seed"
  op: "Const"
  device: "/device:CPU:0"
  attr {
    key: "_output_shapes"
    value {
      list {
        shape {
        }
      }
    }
  }
  attr {
    key: "dtype"
    value {
      type: DT_INT64
    }
  }
  attr {
    key: "value"
    value {
      tensor {
        dtype: DT_INT64
        tensor_shape {
        }
        int64_val: 0
      }
    }
  }
}
node {
  name: "seed2"
  op: "Const"
  device: "/device:CPU:0"
  attr {
    key: "_output_shapes"
    value {
      list {
        shape {
        }
      }
    }
  }
  attr {
    key: "dtype"
    value {
      type: DT_INT64
    }
  }
  attr {
    key: "value"
    value {
      tensor {
        dtype: DT_INT64
        tensor_shape {
        }
        int64_val: 0
      }
    }
  }
}
node {
  name: "ShuffleDataset"
  op: "ShuffleDataset"
  input: "BatchDatasetV2"
  input: "buffer_size"
  input: "seed"
  input: "seed2"
  device: "/device:CPU:0"
  attr {
    key: "_output_shapes"
    value {
      list {
        shape {
        }
      }
    }
  }
  attr {
    key: "output_shapes"
    value {
      list {
        shape {
          dim {
            size: -1
          }
          dim {
            size: 20
          }
          dim {
            size: 20
          }
          dim {
            size: 1
          }
        }
        shape {
          dim {
            size: -1
          }
        }
      }
    }
  }
  attr {
    key: "output_types"
    value {
      list {
        type: DT_HALF
        type: DT_INT64
      }
    }
  }
  attr {
    key: "reshuffle_each_iteration"
    value {
      b: true
    }
  }
}
node {
  name: "OneShotIterator"
  op: "OneShotIterator"
  device: "/device:CPU:0"
  attr {
    key: "_output_shapes"
    value {
      list {
        shape {
        }
      }
    }
  }
  attr {
    key: "container"
    value {
      s: ""
    }
  }
  attr {
    key: "dataset_factory"
    value {
      func {
        name: "_make_dataset_19uyMmDn4vo"
      }
    }
  }
  attr {
    key: "output_shapes"
    value {
      list {
        shape {
          dim {
            size: -1
          }
          dim {
            size: 20
          }
          dim {
            size: 20
          }
          dim {
            size: 1
          }
        }
        shape {
          dim {
            size: -1
          }
        }
      }
    }
  }
  attr {
    key: "output_types"
    value {
      list {
        type: DT_HALF
        type: DT_INT64
      }
    }
  }
  attr {
    key: "shared_name"
    value {
      s: ""
    }
  }
}
node {
  name: "IteratorToStringHandle"
  op: "IteratorToStringHandle"
  input: "OneShotIterator"
  device: "/device:CPU:0"
  attr {
    key: "_output_shapes"
    value {
      list {
        shape {
        }
      }
    }
  }
}
node {
  name: "IteratorGetNext"
  op: "IteratorGetNext"
  input: "OneShotIterator"
  device: "/device:CPU:0"
  attr {
    key: "_output_shapes"
    value {
      list {
        shape {
          dim {
            size: -1
          }
          dim {
            size: 20
          }
          dim {
            size: 20
          }
          dim {
            size: 1
          }
        }
        shape {
          dim {
            size: -1
          }
        }
      }
    }
  }
  attr {
    key: "output_shapes"
    value {
      list {
        shape {
          dim {
            size: -1
          }
          dim {
            size: 20
          }
          dim {
            size: 20
          }
          dim {
            size: 1
          }
        }
        shape {
          dim {
            size: -1
          }
        }
      }
    }
  }
  attr {
    key: "output_types"
    value {
      list {
        type: DT_HALF
        type: DT_INT64
      }
    }
  }
}
node {
  name: "convolutional_2d_1537261701724/kernel/Initializer/random_uniform/shape"
  op: "Const"
  attr {
    key: "_class"
    value {
      list {
        s: "loc:@convolutional_2d_1537261701724/kernel"
      }
    }
  }
  attr {
    key: "_output_shapes"
    value {
      list {
        shape {
          dim {
            size: 4
          }
        }
      }
    }
  }
  attr {
    key: "dtype"
    value {
      type: DT_INT32
    }
  }
  attr {
    key: "value"
    value {
      tensor {
        dtype: DT_INT32
        tensor_shape {
          dim {
            size: 4
          }
        }
        tensor_content: "\005\000\000\000\005\000\000\000\001\000\000\000 \000\000\000"
      }
    }
  }
}
node {
  name: "convolutional_2d_1537261701724/kernel/Initializer/random_uniform/min"
  op: "Const"
  attr {
    key: "_class"
    value {
      list {
        s: "loc:@convolutional_2d_1537261701724/kernel"
      }
    }
  }
  attr {
    key: "_output_shapes"
    value {
      list {
        shape {
        }
      }
    }
  }
  attr {
    key: "dtype"
    value {
      type: DT_HALF
    }
  }
  attr {
    key: "value"
    value {
      tensor {
        dtype: DT_HALF
        tensor_shape {
        }
        half_val: 44405
      }
    }
  }
}
node {
  name: "convolutional_2d_1537261701724/kernel/Initializer/random_uniform/max"
  op: "Const"
  attr {
    key: "_class"
    value {
      list {
        s: "loc:@convolutional_2d_1537261701724/kernel"
      }
    }
  }
  attr {
    key: "_output_shapes"
    value {
      list {
        shape {
        }
      }
    }
  }
  attr {
    key: "dtype"
    value {
      type: DT_HALF
    }
  }
  attr {
    key: "value"
    value {
      tensor {
        dtype: DT_HALF
        tensor_shape {
        }
        half_val: 11637
      }
    }
  }
}
node {
  name: "convolutional_2d_1537261701724/kernel/Initializer/random_uniform/RandomUniform"
  op: "RandomUniform"
  input: "convolutional_2d_1537261701724/kernel/Initializer/random_uniform/shape"
  attr {
    key: "T"
    value {
      type: DT_INT32
    }
  }
  attr {
    key: "_class"
    value {
      list {
        s: "loc:@convolutional_2d_1537261701724/kernel"
      }
    }
  }
  attr {
    key: "_output_shapes"
    value {
      list {
        shape {
          dim {
            size: 5
          }
          dim {
            size: 5
          }
          dim {
            size: 1
          }
          dim {
            size: 32
          }
        }
      }
    }
  }
  attr {
    key: "dtype"
    value {
      type: DT_HALF
    }
  }
  attr {
    key: "seed"
    value {
      i: 0
    }
  }
  attr {
    key: "seed2"
    value {
      i: 0
    }
  }
}
node {
  name: "convolutional_2d_1537261701724/kernel/Initializer/random_uniform/sub"
  op: "Sub"
  input: "convolutional_2d_1537261701724/kernel/Initializer/random_uniform/max"
  input: "convolutional_2d_1537261701724/kernel/Initializer/random_uniform/min"
  attr {
    key: "T"
    value {
      type: DT_HALF
    }
  }
  attr {
    key: "_class"
    value {
      list {
        s: "loc:@convolutional_2d_1537261701724/kernel"
      }
    }
  }
  attr {
    key: "_output_shapes"
    value {
      list {
        shape {
        }
      }
    }
  }
}
node {
  name: "convolutional_2d_1537261701724/kernel/Initializer/random_uniform/mul"
  op: "Mul"
  input: "convolutional_2d_1537261701724/kernel/Initializer/random_uniform/RandomUniform"
  input: "convolutional_2d_1537261701724/kernel/Initializer/random_uniform/sub"
  attr {
    key: "T"
    value {
      type: DT_HALF
    }
  }
  attr {
    key: "_class"
    value {
      list {
        s: "loc:@convolutional_2d_1537261701724/kernel"
      }
    }
  }
  attr {
    key: "_output_shapes"
    value {
      list {
        shape {
          dim {
            size: 5
          }
          dim {
            size: 5
          }
          dim {
            size: 1
          }
          dim {
            size: 32
          }
        }
      }
    }
  }
}
node {
  name: "convolutional_2d_1537261701724/kernel/Initializer/random_uniform"
  op: "Add"
  input: "convolutional_2d_1537261701724/kernel/Initializer/random_uniform/mul"
  input: "convolutional_2d_1537261701724/kernel/Initializer/random_uniform/min"
  attr {
    key: "T"
    value {
      type: DT_HALF
    }
  }
  attr {
    key: "_class"
    value {
      list {
        s: "loc:@convolutional_2d_1537261701724/kernel"
      }
    }
  }
  attr {
    key: "_output_shapes"
    value {
      list {
        shape {
          dim {
            size: 5
          }
          dim {
            size: 5
          }
          dim {
            size: 1
          }
          dim {
            size: 32
          }
        }
      }
    }
  }
}
node {
  name: "convolutional_2d_1537261701724/kernel"
  op: "VariableV2"
  attr {
    key: "_class"
    value {
      list {
        s: "loc:@convolutional_2d_1537261701724/kernel"
      }
    }
  }
  attr {
    key: "_output_shapes"
    value {
      list {
        shape {
          dim {
            size: 5
          }
          dim {
            size: 5
          }
          dim {
            size: 1
          }
          dim {
            size: 32
          }
        }
      }
    }
  }
  attr {
    key: "container"
    value {
      s: ""
    }
  }
  attr {
    key: "dtype"
    value {
      type: DT_HALF
    }
  }
  attr {
    key: "shape"
    value {
      shape {
        dim {
          size: 5
        }
        dim {
          size: 5
        }
        dim {
          size: 1
        }
        dim {
          size: 32
        }
      }
    }
  }
  attr {
    key: "shared_name"
    value {
      s: ""
    }
  }
}
node {
  name: "convolutional_2d_1537261701724/kernel/Assign"
  op: "Assign"
  input: "convolutional_2d_1537261701724/kernel"
  input: "convolutional_2d_1537261701724/kernel/Initializer/random_uniform"
  attr {
    key: "T"
    value {
      type: DT_HALF
    }
  }
  attr {
    key: "_class"
    value {
      list {
        s: "loc:@convolutional_2d_1537261701724/kernel"
      }
    }
  }
  attr {
    key: "_output_shapes"
    value {
      list {
        shape {
          dim {
            size: 5
          }
          dim {
            size: 5
          }
          dim {
            size: 1
          }
          dim {
            size: 32
          }
        }
      }
    }
  }
  attr {
    key: "use_locking"
    value {
      b: true
    }
  }
  attr {
    key: "validate_shape"
    value {
      b: true
    }
  }
}
node {
  name: "convolutional_2d_1537261701724/kernel/read"
  op: "Identity"
  input: "convolutional_2d_1537261701724/kernel"
  attr {
    key: "T"
    value {
      type: DT_HALF
    }
  }
  attr {
    key: "_class"
    value {
      list {
        s: "loc:@convolutional_2d_1537261701724/kernel"
      }
    }
  }
  attr {
    key: "_output_shapes"
    value {
      list {
        shape {
          dim {
            size: 5
          }
          dim {
            size: 5
          }
          dim {
            size: 1
          }
          dim {
            size: 32
          }
        }
      }
    }
  }
}
node {
  name: "convolutional_2d_1537261701724/bias/Initializer/zeros"
  op: "Const"
  attr {
    key: "_class"
    value {
      list {
        s: "loc:@convolutional_2d_1537261701724/bias"
      }
    }
  }
  attr {
    key: "_output_shapes"
    value {
      list {
        shape {
          dim {
            size: 32
          }
        }
      }
    }
  }
  attr {
    key: "dtype"
    value {
      type: DT_HALF
    }
  }
  attr {
    key: "value"
    value {
      tensor {
        dtype: DT_HALF
        tensor_shape {
          dim {
            size: 32
          }
        }
        half_val: 0
      }
    }
  }
}
node {
  name: "convolutional_2d_1537261701724/bias"
  op: "VariableV2"
  attr {
    key: "_class"
    value {
      list {
        s: "loc:@convolutional_2d_1537261701724/bias"
      }
    }
  }
  attr {
    key: "_output_shapes"
    value {
      list {
        shape {
          dim {
            size: 32
          }
        }
      }
    }
  }
  attr {
    key: "container"
    value {
      s: ""
    }
  }
  attr {
    key: "dtype"
    value {
      type: DT_HALF
    }
  }
  attr {
    key: "shape"
    value {
      shape {
        dim {
          size: 32
        }
      }
    }
  }
  attr {
    key: "shared_name"
    value {
      s: ""
    }
  }
}
node {
  name: "convolutional_2d_1537261701724/bias/Assign"
  op: "Assign"
  input: "convolutional_2d_1537261701724/bias"
  input: "convolutional_2d_1537261701724/bias/Initializer/zeros"
  attr {
    key: "T"
    value {
      type: DT_HALF
    }
  }
  attr {
    key: "_class"
    value {
      list {
        s: "loc:@convolutional_2d_1537261701724/bias"
      }
    }
  }
  attr {
    key: "_output_shapes"
    value {
      list {
        shape {
          dim {
            size: 32
          }
        }
      }
    }
  }
  attr {
    key: "use_locking"
    value {
      b: true
    }
  }
  attr {
    key: "validate_shape"
    value {
      b: true
    }
  }
}
node {
  name: "convolutional_2d_1537261701724/bias/read"
  op: "Identity"
  input: "convolutional_2d_1537261701724/bias"
  attr {
    key: "T"
    value {
      type: DT_HALF
    }
  }
  attr {
    key: "_class"
    value {
      list {
        s: "loc:@convolutional_2d_1537261701724/bias"
      }
    }
  }
  attr {
    key: "_output_shapes"
    value {
      list {
        shape {
          dim {
            size: 32
          }
        }
      }
    }
  }
}
node {
  name: "convolutional_2d_1537261701724/dilation_rate"
  op: "Const"
  attr {
    key: "_output_shapes"
    value {
      list {
        shape {
          dim {
            size: 2
          }
        }
      }
    }
  }
  attr {
    key: "dtype"
    value {
      type: DT_INT32
    }
  }
  attr {
    key: "value"
    value {
      tensor {
        dtype: DT_INT32
        tensor_shape {
          dim {
            size: 2
          }
        }
        tensor_content: "\001\000\000\000\001\000\000\000"
      }
    }
  }
}
node {
  name: "convolutional_2d_1537261701724/Conv2D"
  op: "Conv2D"
  input: "IteratorGetNext"
  input: "convolutional_2d_1537261701724/kernel/read"
  attr {
    key: "T"
    value {
      type: DT_HALF
    }
  }
  attr {
    key: "_output_shapes"
    value {
      list {
        shape {
          dim {
            size: -1
          }
          dim {
            size: 20
          }
          dim {
            size: 20
          }
          dim {
            size: 32
          }
        }
      }
    }
  }
  attr {
    key: "data_format"
    value {
      s: "NHWC"
    }
  }
  attr {
    key: "dilations"
    value {
      list {
        i: 1
        i: 1
        i: 1
        i: 1
      }
    }
  }
  attr {
    key: "explicit_paddings"
    value {
      list {
      }
    }
  }
  attr {
    key: "padding"
    value {
      s: "SAME"
    }
  }
  attr {
    key: "strides"
    value {
      list {
        i: 1
        i: 1
        i: 1
        i: 1
      }
    }
  }
  attr {
    key: "use_cudnn_on_gpu"
    value {
      b: true
    }
  }
}
node {
  name: "convolutional_2d_1537261701724/BiasAdd"
  op: "BiasAdd"
  input: "convolutional_2d_1537261701724/Conv2D"
  input: "convolutional_2d_1537261701724/bias/read"
  attr {
    key: "T"
    value {
      type: DT_HALF
    }
  }
  attr {
    key: "_output_shapes"
    value {
      list {
        shape {
          dim {
            size: -1
          }
          dim {
            size: 20
          }
          dim {
            size: 20
          }
          dim {
            size: 32
          }
        }
      }
    }
  }
  attr {
    key: "data_format"
    value {
      s: "NHWC"
    }
  }
}
node {
  name: "convolutional_2d_1537261701724/Relu"
  op: "Relu"
  input: "convolutional_2d_1537261701724/BiasAdd"
  attr {
    key: "T"
    value {
      type: DT_HALF
    }
  }
  attr {
    key: "_output_shapes"
    value {
      list {
        shape {
          dim {
            size: -1
          }
          dim {
            size: 20
          }
          dim {
            size: 20
          }
          dim {
            size: 32
          }
        }
      }
    }
  }
}
node {
  name: "max_pool_2d_1537261722515/MaxPool"
  op: "MaxPool"
  input: "convolutional_2d_1537261701724/Relu"
  attr {
    key: "T"
    value {
      type: DT_HALF
    }
  }
  attr {
    key: "_output_shapes"
    value {
      list {
        shape {
          dim {
            size: -1
          }
          dim {
            size: 10
          }
          dim {
            size: 10
          }
          dim {
            size: 32
          }
        }
      }
    }
  }
  attr {
    key: "data_format"
    value {
      s: "NHWC"
    }
  }
  attr {
    key: "ksize"
    value {
      list {
        i: 1
        i: 2
        i: 2
        i: 1
      }
    }
  }
  attr {
    key: "padding"
    value {
      s: "SAME"
    }
  }
  attr {
    key: "strides"
    value {
      list {
        i: 1
        i: 2
        i: 2
        i: 1
      }
    }
  }
}
node {
  name: "convolutional_2d_1537261728442/kernel/Initializer/random_uniform/shape"
  op: "Const"
  attr {
    key: "_class"
    value {
      list {
        s: "loc:@convolutional_2d_1537261728442/kernel"
      }
    }
  }
  attr {
    key: "_output_shapes"
    value {
      list {
        shape {
          dim {
            size: 4
          }
        }
      }
    }
  }
  attr {
    key: "dtype"
    value {
      type: DT_INT32
    }
  }
  attr {
    key: "value"
    value {
      tensor {
        dtype: DT_INT32
        tensor_shape {
          dim {
            size: 4
          }
        }
        tensor_content: "\005\000\000\000\005\000\000\000 \000\000\000@\000\000\000"
      }
    }
  }
}
node {
  name: "convolutional_2d_1537261728442/kernel/Initializer/random_uniform/min"
  op: "Const"
  attr {
    key: "_class"
    value {
      list {
        s: "loc:@convolutional_2d_1537261728442/kernel"
      }
    }
  }
  attr {
    key: "_output_shapes"
    value {
      list {
        shape {
        }
      }
    }
  }
  attr {
    key: "dtype"
    value {
      type: DT_HALF
    }
  }
  attr {
    key: "value"
    value {
      tensor {
        dtype: DT_HALF
        tensor_shape {
        }
        half_val: 43622
      }
    }
  }
}
node {
  name: "convolutional_2d_1537261728442/kernel/Initializer/random_uniform/max"
  op: "Const"
  attr {
    key: "_class"
    value {
      list {
        s: "loc:@convolutional_2d_1537261728442/kernel"
      }
    }
  }
  attr {
    key: "_output_shapes"
    value {
      list {
        shape {
        }
      }
    }
  }
  attr {
    key: "dtype"
    value {
      type: DT_HALF
    }
  }
  attr {
    key: "value"
    value {
      tensor {
        dtype: DT_HALF
        tensor_shape {
        }
        half_val: 10854
      }
    }
  }
}
node {
  name: "convolutional_2d_1537261728442/kernel/Initializer/random_uniform/RandomUniform"
  op: "RandomUniform"
  input: "convolutional_2d_1537261728442/kernel/Initializer/random_uniform/shape"
  attr {
    key: "T"
    value {
      type: DT_INT32
    }
  }
  attr {
    key: "_class"
    value {
      list {
        s: "loc:@convolutional_2d_1537261728442/kernel"
      }
    }
  }
  attr {
    key: "_output_shapes"
    value {
      list {
        shape {
          dim {
            size: 5
          }
          dim {
            size: 5
          }
          dim {
            size: 32
          }
          dim {
            size: 64
          }
        }
      }
    }
  }
  attr {
    key: "dtype"
    value {
      type: DT_HALF
    }
  }
  attr {
    key: "seed"
    value {
      i: 0
    }
  }
  attr {
    key: "seed2"
    value {
      i: 0
    }
  }
}
node {
  name: "convolutional_2d_1537261728442/kernel/Initializer/random_uniform/sub"
  op: "Sub"
  input: "convolutional_2d_1537261728442/kernel/Initializer/random_uniform/max"
  input: "convolutional_2d_1537261728442/kernel/Initializer/random_uniform/min"
  attr {
    key: "T"
    value {
      type: DT_HALF
    }
  }
  attr {
    key: "_class"
    value {
      list {
        s: "loc:@convolutional_2d_1537261728442/kernel"
      }
    }
  }
  attr {
    key: "_output_shapes"
    value {
      list {
        shape {
        }
      }
    }
  }
}
node {
  name: "convolutional_2d_1537261728442/kernel/Initializer/random_uniform/mul"
  op: "Mul"
  input: "convolutional_2d_1537261728442/kernel/Initializer/random_uniform/RandomUniform"
  input: "convolutional_2d_1537261728442/kernel/Initializer/random_uniform/sub"
  attr {
    key: "T"
    value {
      type: DT_HALF
    }
  }
  attr {
    key: "_class"
    value {
      list {
        s: "loc:@convolutional_2d_1537261728442/kernel"
      }
    }
  }
  attr {
    key: "_output_shapes"
    value {
      list {
        shape {
          dim {
            size: 5
          }
          dim {
            size: 5
          }
          dim {
            size: 32
          }
          dim {
            size: 64
          }
        }
      }
    }
  }
}
node {
  name: "convolutional_2d_1537261728442/kernel/Initializer/random_uniform"
  op: "Add"
  input: "convolutional_2d_1537261728442/kernel/Initializer/random_uniform/mul"
  input: "convolutional_2d_1537261728442/kernel/Initializer/random_uniform/min"
  attr {
    key: "T"
    value {
      type: DT_HALF
    }
  }
  attr {
    key: "_class"
    value {
      list {
        s: "loc:@convolutional_2d_1537261728442/kernel"
      }
    }
  }
  attr {
    key: "_output_shapes"
    value {
      list {
        shape {
          dim {
            size: 5
          }
          dim {
            size: 5
          }
          dim {
            size: 32
          }
          dim {
            size: 64
          }
        }
      }
    }
  }
}
node {
  name: "convolutional_2d_1537261728442/kernel"
  op: "VariableV2"
  attr {
    key: "_class"
    value {
      list {
        s: "loc:@convolutional_2d_1537261728442/kernel"
      }
    }
  }
  attr {
    key: "_output_shapes"
    value {
      list {
        shape {
          dim {
            size: 5
          }
          dim {
            size: 5
          }
          dim {
            size: 32
          }
          dim {
            size: 64
          }
        }
      }
    }
  }
  attr {
    key: "container"
    value {
      s: ""
    }
  }
  attr {
    key: "dtype"
    value {
      type: DT_HALF
    }
  }
  attr {
    key: "shape"
    value {
      shape {
        dim {
          size: 5
        }
        dim {
          size: 5
        }
        dim {
          size: 32
        }
        dim {
          size: 64
        }
      }
    }
  }
  attr {
    key: "shared_name"
    value {
      s: ""
    }
  }
}
node {
  name: "convolutional_2d_1537261728442/kernel/Assign"
  op: "Assign"
  input: "convolutional_2d_1537261728442/kernel"
  input: "convolutional_2d_1537261728442/kernel/Initializer/random_uniform"
  attr {
    key: "T"
    value {
      type: DT_HALF
    }
  }
  attr {
    key: "_class"
    value {
      list {
        s: "loc:@convolutional_2d_1537261728442/kernel"
      }
    }
  }
  attr {
    key: "_output_shapes"
    value {
      list {
        shape {
          dim {
            size: 5
          }
          dim {
            size: 5
          }
          dim {
            size: 32
          }
          dim {
            size: 64
          }
        }
      }
    }
  }
  attr {
    key: "use_locking"
    value {
      b: true
    }
  }
  attr {
    key: "validate_shape"
    value {
      b: true
    }
  }
}
node {
  name: "convolutional_2d_1537261728442/kernel/read"
  op: "Identity"
  input: "convolutional_2d_1537261728442/kernel"
  attr {
    key: "T"
    value {
      type: DT_HALF
    }
  }
  attr {
    key: "_class"
    value {
      list {
        s: "loc:@convolutional_2d_1537261728442/kernel"
      }
    }
  }
  attr {
    key: "_output_shapes"
    value {
      list {
        shape {
          dim {
            size: 5
          }
          dim {
            size: 5
          }
          dim {
            size: 32
          }
          dim {
            size: 64
          }
        }
      }
    }
  }
}
node {
  name: "convolutional_2d_1537261728442/bias/Initializer/zeros"
  op: "Const"
  attr {
    key: "_class"
    value {
      list {
        s: "loc:@convolutional_2d_1537261728442/bias"
      }
    }
  }
  attr {
    key: "_output_shapes"
    value {
      list {
        shape {
          dim {
            size: 64
          }
        }
      }
    }
  }
  attr {
    key: "dtype"
    value {
      type: DT_HALF
    }
  }
  attr {
    key: "value"
    value {
      tensor {
        dtype: DT_HALF
        tensor_shape {
          dim {
            size: 64
          }
        }
        half_val: 0
      }
    }
  }
}
node {
  name: "convolutional_2d_1537261728442/bias"
  op: "VariableV2"
  attr {
    key: "_class"
    value {
      list {
        s: "loc:@convolutional_2d_1537261728442/bias"
      }
    }
  }
  attr {
    key: "_output_shapes"
    value {
      list {
        shape {
          dim {
            size: 64
          }
        }
      }
    }
  }
  attr {
    key: "container"
    value {
      s: ""
    }
  }
  attr {
    key: "dtype"
    value {
      type: DT_HALF
    }
  }
  attr {
    key: "shape"
    value {
      shape {
        dim {
          size: 64
        }
      }
    }
  }
  attr {
    key: "shared_name"
    value {
      s: ""
    }
  }
}
node {
  name: "convolutional_2d_1537261728442/bias/Assign"
  op: "Assign"
  input: "convolutional_2d_1537261728442/bias"
  input: "convolutional_2d_1537261728442/bias/Initializer/zeros"
  attr {
    key: "T"
    value {
      type: DT_HALF
    }
  }
  attr {
    key: "_class"
    value {
      list {
        s: "loc:@convolutional_2d_1537261728442/bias"
      }
    }
  }
  attr {
    key: "_output_shapes"
    value {
      list {
        shape {
          dim {
            size: 64
          }
        }
      }
    }
  }
  attr {
    key: "use_locking"
    value {
      b: true
    }
  }
  attr {
    key: "validate_shape"
    value {
      b: true
    }
  }
}
node {
  name: "convolutional_2d_1537261728442/bias/read"
  op: "Identity"
  input: "convolutional_2d_1537261728442/bias"
  attr {
    key: "T"
    value {
      type: DT_HALF
    }
  }
  attr {
    key: "_class"
    value {
      list {
        s: "loc:@convolutional_2d_1537261728442/bias"
      }
    }
  }
  attr {
    key: "_output_shapes"
    value {
      list {
        shape {
          dim {
            size: 64
          }
        }
      }
    }
  }
}
node {
  name: "convolutional_2d_1537261728442/dilation_rate"
  op: "Const"
  attr {
    key: "_output_shapes"
    value {
      list {
        shape {
          dim {
            size: 2
          }
        }
      }
    }
  }
  attr {
    key: "dtype"
    value {
      type: DT_INT32
    }
  }
  attr {
    key: "value"
    value {
      tensor {
        dtype: DT_INT32
        tensor_shape {
          dim {
            size: 2
          }
        }
        tensor_content: "\001\000\000\000\001\000\000\000"
      }
    }
  }
}
node {
  name: "convolutional_2d_1537261728442/Conv2D"
  op: "Conv2D"
  input: "max_pool_2d_1537261722515/MaxPool"
  input: "convolutional_2d_1537261728442/kernel/read"
  attr {
    key: "T"
    value {
      type: DT_HALF
    }
  }
  attr {
    key: "_output_shapes"
    value {
      list {
        shape {
          dim {
            size: -1
          }
          dim {
            size: 10
          }
          dim {
            size: 10
          }
          dim {
            size: 64
          }
        }
      }
    }
  }
  attr {
    key: "data_format"
    value {
      s: "NHWC"
    }
  }
  attr {
    key: "dilations"
    value {
      list {
        i: 1
        i: 1
        i: 1
        i: 1
      }
    }
  }
  attr {
    key: "explicit_paddings"
    value {
      list {
      }
    }
  }
  attr {
    key: "padding"
    value {
      s: "SAME"
    }
  }
  attr {
    key: "strides"
    value {
      list {
        i: 1
        i: 1
        i: 1
        i: 1
      }
    }
  }
  attr {
    key: "use_cudnn_on_gpu"
    value {
      b: true
    }
  }
}
node {
  name: "convolutional_2d_1537261728442/BiasAdd"
  op: "BiasAdd"
  input: "convolutional_2d_1537261728442/Conv2D"
  input: "convolutional_2d_1537261728442/bias/read"
  attr {
    key: "T"
    value {
      type: DT_HALF
    }
  }
  attr {
    key: "_output_shapes"
    value {
      list {
        shape {
          dim {
            size: -1
          }
          dim {
            size: 10
          }
          dim {
            size: 10
          }
          dim {
            size: 64
          }
        }
      }
    }
  }
  attr {
    key: "data_format"
    value {
      s: "NHWC"
    }
  }
}
node {
  name: "convolutional_2d_1537261728442/Relu"
  op: "Relu"
  input: "convolutional_2d_1537261728442/BiasAdd"
  attr {
    key: "T"
    value {
      type: DT_HALF
    }
  }
  attr {
    key: "_output_shapes"
    value {
      list {
        shape {
          dim {
            size: -1
          }
          dim {
            size: 10
          }
          dim {
            size: 10
          }
          dim {
            size: 64
          }
        }
      }
    }
  }
}
node {
  name: "max_pool_2d_1537261754562/MaxPool"
  op: "MaxPool"
  input: "convolutional_2d_1537261728442/Relu"
  attr {
    key: "T"
    value {
      type: DT_HALF
    }
  }
  attr {
    key: "_output_shapes"
    value {
      list {
        shape {
          dim {
            size: -1
          }
          dim {
            size: 5
          }
          dim {
            size: 5
          }
          dim {
            size: 64
          }
        }
      }
    }
  }
  attr {
    key: "data_format"
    value {
      s: "NHWC"
    }
  }
  attr {
    key: "ksize"
    value {
      list {
        i: 1
        i: 2
        i: 2
        i: 1
      }
    }
  }
  attr {
    key: "padding"
    value {
      s: "SAME"
    }
  }
  attr {
    key: "strides"
    value {
      list {
        i: 1
        i: 2
        i: 2
        i: 1
      }
    }
  }
}
node {
  name: "Reshape/shape"
  op: "Const"
  attr {
    key: "_output_shapes"
    value {
      list {
        shape {
          dim {
            size: 2
          }
        }
      }
    }
  }
  attr {
    key: "dtype"
    value {
      type: DT_INT32
    }
  }
  attr {
    key: "value"
    value {
      tensor {
        dtype: DT_INT32
        tensor_shape {
          dim {
            size: 2
          }
        }
        tensor_content: "\377\377\377\377@\006\000\000"
      }
    }
  }
}
node {
  name: "Reshape"
  op: "Reshape"
  input: "max_pool_2d_1537261754562/MaxPool"
  input: "Reshape/shape"
  attr {
    key: "T"
    value {
      type: DT_HALF
    }
  }
  attr {
    key: "Tshape"
    value {
      type: DT_INT32
    }
  }
  attr {
    key: "_output_shapes"
    value {
      list {
        shape {
          dim {
            size: -1
          }
          dim {
            size: 1600
          }
        }
      }
    }
  }
}
node {
  name: "dense/kernel/Initializer/random_uniform/shape"
  op: "Const"
  attr {
    key: "_class"
    value {
      list {
        s: "loc:@dense/kernel"
      }
    }
  }
  attr {
    key: "_output_shapes"
    value {
      list {
        shape {
          dim {
            size: 2
          }
        }
      }
    }
  }
  attr {
    key: "dtype"
    value {
      type: DT_INT32
    }
  }
  attr {
    key: "value"
    value {
      tensor {
        dtype: DT_INT32
        tensor_shape {
          dim {
            size: 2
          }
        }
        tensor_content: "@\006\000\000\000\004\000\000"
      }
    }
  }
}
node {
  name: "dense/kernel/Initializer/random_uniform/min"
  op: "Const"
  attr {
    key: "_class"
    value {
      list {
        s: "loc:@dense/kernel"
      }
    }
  }
  attr {
    key: "_output_shapes"
    value {
      list {
        shape {
        }
      }
    }
  }
  attr {
    key: "dtype"
    value {
      type: DT_HALF
    }
  }
  attr {
    key: "value"
    value {
      tensor {
        dtype: DT_HALF
        tensor_shape {
        }
        half_val: 43551
      }
    }
  }
}
node {
  name: "dense/kernel/Initializer/random_uniform/max"
  op: "Const"
  attr {
    key: "_class"
    value {
      list {
        s: "loc:@dense/kernel"
      }
    }
  }
  attr {
    key: "_output_shapes"
    value {
      list {
        shape {
        }
      }
    }
  }
  attr {
    key: "dtype"
    value {
      type: DT_HALF
    }
  }
  attr {
    key: "value"
    value {
      tensor {
        dtype: DT_HALF
        tensor_shape {
        }
        half_val: 10783
      }
    }
  }
}
node {
  name: "dense/kernel/Initializer/random_uniform/RandomUniform"
  op: "RandomUniform"
  input: "dense/kernel/Initializer/random_uniform/shape"
  attr {
    key: "T"
    value {
      type: DT_INT32
    }
  }
  attr {
    key: "_class"
    value {
      list {
        s: "loc:@dense/kernel"
      }
    }
  }
  attr {
    key: "_output_shapes"
    value {
      list {
        shape {
          dim {
            size: 1600
          }
          dim {
            size: 1024
          }
        }
      }
    }
  }
  attr {
    key: "dtype"
    value {
      type: DT_HALF
    }
  }
  attr {
    key: "seed"
    value {
      i: 0
    }
  }
  attr {
    key: "seed2"
    value {
      i: 0
    }
  }
}
node {
  name: "dense/kernel/Initializer/random_uniform/sub"
  op: "Sub"
  input: "dense/kernel/Initializer/random_uniform/max"
  input: "dense/kernel/Initializer/random_uniform/min"
  attr {
    key: "T"
    value {
      type: DT_HALF
    }
  }
  attr {
    key: "_class"
    value {
      list {
        s: "loc:@dense/kernel"
      }
    }
  }
  attr {
    key: "_output_shapes"
    value {
      list {
        shape {
        }
      }
    }
  }
}
node {
  name: "dense/kernel/Initializer/random_uniform/mul"
  op: "Mul"
  input: "dense/kernel/Initializer/random_uniform/RandomUniform"
  input: "dense/kernel/Initializer/random_uniform/sub"
  attr {
    key: "T"
    value {
      type: DT_HALF
    }
  }
  attr {
    key: "_class"
    value {
      list {
        s: "loc:@dense/kernel"
      }
    }
  }
  attr {
    key: "_output_shapes"
    value {
      list {
        shape {
          dim {
            size: 1600
          }
          dim {
            size: 1024
          }
        }
      }
    }
  }
}
node {
  name: "dense/kernel/Initializer/random_uniform"
  op: "Add"
  input: "dense/kernel/Initializer/random_uniform/mul"
  input: "dense/kernel/Initializer/random_uniform/min"
  attr {
    key: "T"
    value {
      type: DT_HALF
    }
  }
  attr {
    key: "_class"
    value {
      list {
        s: "loc:@dense/kernel"
      }
    }
  }
  attr {
    key: "_output_shapes"
    value {
      list {
        shape {
          dim {
            size: 1600
          }
          dim {
            size: 1024
          }
        }
      }
    }
  }
}
node {
  name: "dense/kernel"
  op: "VariableV2"
  attr {
    key: "_class"
    value {
      list {
        s: "loc:@dense/kernel"
      }
    }
  }
  attr {
    key: "_output_shapes"
    value {
      list {
        shape {
          dim {
            size: 1600
          }
          dim {
            size: 1024
          }
        }
      }
    }
  }
  attr {
    key: "container"
    value {
      s: ""
    }
  }
  attr {
    key: "dtype"
    value {
      type: DT_HALF
    }
  }
  attr {
    key: "shape"
    value {
      shape {
        dim {
          size: 1600
        }
        dim {
          size: 1024
        }
      }
    }
  }
  attr {
    key: "shared_name"
    value {
      s: ""
    }
  }
}
node {
  name: "dense/kernel/Assign"
  op: "Assign"
  input: "dense/kernel"
  input: "dense/kernel/Initializer/random_uniform"
  attr {
    key: "T"
    value {
      type: DT_HALF
    }
  }
  attr {
    key: "_class"
    value {
      list {
        s: "loc:@dense/kernel"
      }
    }
  }
  attr {
    key: "_output_shapes"
    value {
      list {
        shape {
          dim {
            size: 1600
          }
          dim {
            size: 1024
          }
        }
      }
    }
  }
  attr {
    key: "use_locking"
    value {
      b: true
    }
  }
  attr {
    key: "validate_shape"
    value {
      b: true
    }
  }
}
node {
  name: "dense/kernel/read"
  op: "Identity"
  input: "dense/kernel"
  attr {
    key: "T"
    value {
      type: DT_HALF
    }
  }
  attr {
    key: "_class"
    value {
      list {
        s: "loc:@dense/kernel"
      }
    }
  }
  attr {
    key: "_output_shapes"
    value {
      list {
        shape {
          dim {
            size: 1600
          }
          dim {
            size: 1024
          }
        }
      }
    }
  }
}
node {
  name: "dense/bias/Initializer/zeros/shape_as_tensor"
  op: "Const"
  attr {
    key: "_class"
    value {
      list {
        s: "loc:@dense/bias"
      }
    }
  }
  attr {
    key: "_output_shapes"
    value {
      list {
        shape {
          dim {
            size: 1
          }
        }
      }
    }
  }
  attr {
    key: "dtype"
    value {
      type: DT_INT32
    }
  }
  attr {
    key: "value"
    value {
      tensor {
        dtype: DT_INT32
        tensor_shape {
          dim {
            size: 1
          }
        }
        int_val: 1024
      }
    }
  }
}
node {
  name: "dense/bias/Initializer/zeros/Const"
  op: "Const"
  attr {
    key: "_class"
    value {
      list {
        s: "loc:@dense/bias"
      }
    }
  }
  attr {
    key: "_output_shapes"
    value {
      list {
        shape {
        }
      }
    }
  }
  attr {
    key: "dtype"
    value {
      type: DT_HALF
    }
  }
  attr {
    key: "value"
    value {
      tensor {
        dtype: DT_HALF
        tensor_shape {
        }
        half_val: 0
      }
    }
  }
}
node {
  name: "dense/bias/Initializer/zeros"
  op: "Fill"
  input: "dense/bias/Initializer/zeros/shape_as_tensor"
  input: "dense/bias/Initializer/zeros/Const"
  attr {
    key: "T"
    value {
      type: DT_HALF
    }
  }
  attr {
    key: "_class"
    value {
      list {
        s: "loc:@dense/bias"
      }
    }
  }
  attr {
    key: "_output_shapes"
    value {
      list {
        shape {
          dim {
            size: 1024
          }
        }
      }
    }
  }
  attr {
    key: "index_type"
    value {
      type: DT_INT32
    }
  }
}
node {
  name: "dense/bias"
  op: "VariableV2"
  attr {
    key: "_class"
    value {
      list {
        s: "loc:@dense/bias"
      }
    }
  }
  attr {
    key: "_output_shapes"
    value {
      list {
        shape {
          dim {
            size: 1024
          }
        }
      }
    }
  }
  attr {
    key: "container"
    value {
      s: ""
    }
  }
  attr {
    key: "dtype"
    value {
      type: DT_HALF
    }
  }
  attr {
    key: "shape"
    value {
      shape {
        dim {
          size: 1024
        }
      }
    }
  }
  attr {
    key: "shared_name"
    value {
      s: ""
    }
  }
}
node {
  name: "dense/bias/Assign"
  op: "Assign"
  input: "dense/bias"
  input: "dense/bias/Initializer/zeros"
  attr {
    key: "T"
    value {
      type: DT_HALF
    }
  }
  attr {
    key: "_class"
    value {
      list {
        s: "loc:@dense/bias"
      }
    }
  }
  attr {
    key: "_output_shapes"
    value {
      list {
        shape {
          dim {
            size: 1024
          }
        }
      }
    }
  }
  attr {
    key: "use_locking"
    value {
      b: true
    }
  }
  attr {
    key: "validate_shape"
    value {
      b: true
    }
  }
}
node {
  name: "dense/bias/read"
  op: "Identity"
  input: "dense/bias"
  attr {
    key: "T"
    value {
      type: DT_HALF
    }
  }
  attr {
    key: "_class"
    value {
      list {
        s: "loc:@dense/bias"
      }
    }
  }
  attr {
    key: "_output_shapes"
    value {
      list {
        shape {
          dim {
            size: 1024
          }
        }
      }
    }
  }
}
node {
  name: "dense/MatMul"
  op: "MatMul"
  input: "Reshape"
  input: "dense/kernel/read"
  attr {
    key: "T"
    value {
      type: DT_HALF
    }
  }
  attr {
    key: "_output_shapes"
    value {
      list {
        shape {
          dim {
            size: -1
          }
          dim {
            size: 1024
          }
        }
      }
    }
  }
  attr {
    key: "transpose_a"
    value {
      b: false
    }
  }
  attr {
    key: "transpose_b"
    value {
      b: false
    }
  }
}
node {
  name: "dense/BiasAdd"
  op: "BiasAdd"
  input: "dense/MatMul"
  input: "dense/bias/read"
  attr {
    key: "T"
    value {
      type: DT_HALF
    }
  }
  attr {
    key: "_output_shapes"
    value {
      list {
        shape {
          dim {
            size: -1
          }
          dim {
            size: 1024
          }
        }
      }
    }
  }
  attr {
    key: "data_format"
    value {
      s: "NHWC"
    }
  }
}
node {
  name: "dense/Relu"
  op: "Relu"
  input: "dense/BiasAdd"
  attr {
    key: "T"
    value {
      type: DT_HALF
    }
  }
  attr {
    key: "_output_shapes"
    value {
      list {
        shape {
          dim {
            size: -1
          }
          dim {
            size: 1024
          }
        }
      }
    }
  }
}
node {
  name: "dropout/dropout/rate"
  op: "Const"
  attr {
    key: "_output_shapes"
    value {
      list {
        shape {
        }
      }
    }
  }
  attr {
    key: "dtype"
    value {
      type: DT_HALF
    }
  }
  attr {
    key: "value"
    value {
      tensor {
        dtype: DT_HALF
        tensor_shape {
        }
        half_val: 13926
      }
    }
  }
}
node {
  name: "dropout/dropout/Shape"
  op: "Shape"
  input: "dense/Relu"
  attr {
    key: "T"
    value {
      type: DT_HALF
    }
  }
  attr {
    key: "_output_shapes"
    value {
      list {
        shape {
          dim {
            size: 2
          }
        }
      }
    }
  }
  attr {
    key: "out_type"
    value {
      type: DT_INT32
    }
  }
}
node {
  name: "dropout/dropout/random_uniform/min"
  op: "Const"
  attr {
    key: "_output_shapes"
    value {
      list {
        shape {
        }
      }
    }
  }
  attr {
    key: "dtype"
    value {
      type: DT_HALF
    }
  }
  attr {
    key: "value"
    value {
      tensor {
        dtype: DT_HALF
        tensor_shape {
        }
        half_val: 0
      }
    }
  }
}
node {
  name: "dropout/dropout/random_uniform/max"
  op: "Const"
  attr {
    key: "_output_shapes"
    value {
      list {
        shape {
        }
      }
    }
  }
  attr {
    key: "dtype"
    value {
      type: DT_HALF
    }
  }
  attr {
    key: "value"
    value {
      tensor {
        dtype: DT_HALF
        tensor_shape {
        }
        half_val: 15360
      }
    }
  }
}
node {
  name: "dropout/dropout/random_uniform/RandomUniform"
  op: "RandomUniform"
  input: "dropout/dropout/Shape"
  attr {
    key: "T"
    value {
      type: DT_INT32
    }
  }
  attr {
    key: "_output_shapes"
    value {
      list {
        shape {
          dim {
            size: -1
          }
          dim {
            size: 1024
          }
        }
      }
    }
  }
  attr {
    key: "dtype"
    value {
      type: DT_HALF
    }
  }
  attr {
    key: "seed"
    value {
      i: 0
    }
  }
  attr {
    key: "seed2"
    value {
      i: 0
    }
  }
}
node {
  name: "dropout/dropout/random_uniform/sub"
  op: "Sub"
  input: "dropout/dropout/random_uniform/max"
  input: "dropout/dropout/random_uniform/min"
  attr {
    key: "T"
    value {
      type: DT_HALF
    }
  }
  attr {
    key: "_output_shapes"
    value {
      list {
        shape {
        }
      }
    }
  }
}
node {
  name: "dropout/dropout/random_uniform/mul"
  op: "Mul"
  input: "dropout/dropout/random_uniform/RandomUniform"
  input: "dropout/dropout/random_uniform/sub"
  attr {
    key: "T"
    value {
      type: DT_HALF
    }
  }
  attr {
    key: "_output_shapes"
    value {
      list {
        shape {
          dim {
            size: -1
          }
          dim {
            size: 1024
          }
        }
      }
    }
  }
}
node {
  name: "dropout/dropout/random_uniform"
  op: "Add"
  input: "dropout/dropout/random_uniform/mul"
  input: "dropout/dropout/random_uniform/min"
  attr {
    key: "T"
    value {
      type: DT_HALF
    }
  }
  attr {
    key: "_output_shapes"
    value {
      list {
        shape {
          dim {
            size: -1
          }
          dim {
            size: 1024
          }
        }
      }
    }
  }
}
node {
  name: "dropout/dropout/sub/x"
  op: "Const"
  attr {
    key: "_output_shapes"
    value {
      list {
        shape {
        }
      }
    }
  }
  attr {
    key: "dtype"
    value {
      type: DT_HALF
    }
  }
  attr {
    key: "value"
    value {
      tensor {
        dtype: DT_HALF
        tensor_shape {
        }
        half_val: 15360
      }
    }
  }
}
node {
  name: "dropout/dropout/sub"
  op: "Sub"
  input: "dropout/dropout/sub/x"
  input: "dropout/dropout/rate"
  attr {
    key: "T"
    value {
      type: DT_HALF
    }
  }
  attr {
    key: "_output_shapes"
    value {
      list {
        shape {
        }
      }
    }
  }
}
node {
  name: "dropout/dropout/truediv/x"
  op: "Const"
  attr {
    key: "_output_shapes"
    value {
      list {
        shape {
        }
      }
    }
  }
  attr {
    key: "dtype"
    value {
      type: DT_HALF
    }
  }
  attr {
    key: "value"
    value {
      tensor {
        dtype: DT_HALF
        tensor_shape {
        }
        half_val: 15360
      }
    }
  }
}
node {
  name: "dropout/dropout/truediv"
  op: "RealDiv"
  input: "dropout/dropout/truediv/x"
  input: "dropout/dropout/sub"
  attr {
    key: "T"
    value {
      type: DT_HALF
    }
  }
  attr {
    key: "_output_shapes"
    value {
      list {
        shape {
        }
      }
    }
  }
}
node {
  name: "dropout/dropout/GreaterEqual"
  op: "GreaterEqual"
  input: "dropout/dropout/random_uniform"
  input: "dropout/dropout/rate"
  attr {
    key: "T"
    value {
      type: DT_HALF
    }
  }
  attr {
    key: "_output_shapes"
    value {
      list {
        shape {
          dim {
            size: -1
          }
          dim {
            size: 1024
          }
        }
      }
    }
  }
}
node {
  name: "dropout/dropout/mul"
  op: "Mul"
  input: "dense/Relu"
  input: "dropout/dropout/truediv"
  attr {
    key: "T"
    value {
      type: DT_HALF
    }
  }
  attr {
    key: "_output_shapes"
    value {
      list {
        shape {
          dim {
            size: -1
          }
          dim {
            size: 1024
          }
        }
      }
    }
  }
}
node {
  name: "dropout/dropout/Cast"
  op: "Cast"
  input: "dropout/dropout/GreaterEqual"
  attr {
    key: "DstT"
    value {
      type: DT_HALF
    }
  }
  attr {
    key: "SrcT"
    value {
      type: DT_BOOL
    }
  }
  attr {
    key: "Truncate"
    value {
      b: false
    }
  }
  attr {
    key: "_output_shapes"
    value {
      list {
        shape {
          dim {
            size: -1
          }
          dim {
            size: 1024
          }
        }
      }
    }
  }
}
node {
  name: "dropout/dropout/mul_1"
  op: "Mul"
  input: "dropout/dropout/mul"
  input: "dropout/dropout/Cast"
  attr {
    key: "T"
    value {
      type: DT_HALF
    }
  }
  attr {
    key: "_output_shapes"
    value {
      list {
        shape {
          dim {
            size: -1
          }
          dim {
            size: 1024
          }
        }
      }
    }
  }
}
node {
  name: "dense_1/kernel/Initializer/random_uniform/shape"
  op: "Const"
  attr {
    key: "_class"
    value {
      list {
        s: "loc:@dense_1/kernel"
      }
    }
  }
  attr {
    key: "_output_shapes"
    value {
      list {
        shape {
          dim {
            size: 2
          }
        }
      }
    }
  }
  attr {
    key: "dtype"
    value {
      type: DT_INT32
    }
  }
  attr {
    key: "value"
    value {
      tensor {
        dtype: DT_INT32
        tensor_shape {
          dim {
            size: 2
          }
        }
        tensor_content: "\000\004\000\000\036\000\000\000"
      }
    }
  }
}
node {
  name: "dense_1/kernel/Initializer/random_uniform/min"
  op: "Const"
  attr {
    key: "_class"
    value {
      list {
        s: "loc:@dense_1/kernel"
      }
    }
  }
  attr {
    key: "_output_shapes"
    value {
      list {
        shape {
        }
      }
    }
  }
  attr {
    key: "dtype"
    value {
      type: DT_HALF
    }
  }
  attr {
    key: "value"
    value {
      tensor {
        dtype: DT_HALF
        tensor_shape {
        }
        half_val: 44244
      }
    }
  }
}
node {
  name: "dense_1/kernel/Initializer/random_uniform/max"
  op: "Const"
  attr {
    key: "_class"
    value {
      list {
        s: "loc:@dense_1/kernel"
      }
    }
  }
  attr {
    key: "_output_shapes"
    value {
      list {
        shape {
        }
      }
    }
  }
  attr {
    key: "dtype"
    value {
      type: DT_HALF
    }
  }
  attr {
    key: "value"
    value {
      tensor {
        dtype: DT_HALF
        tensor_shape {
        }
        half_val: 11476
      }
    }
  }
}
node {
  name: "dense_1/kernel/Initializer/random_uniform/RandomUniform"
  op: "RandomUniform"
  input: "dense_1/kernel/Initializer/random_uniform/shape"
  attr {
    key: "T"
    value {
      type: DT_INT32
    }
  }
  attr {
    key: "_class"
    value {
      list {
        s: "loc:@dense_1/kernel"
      }
    }
  }
  attr {
    key: "_output_shapes"
    value {
      list {
        shape {
          dim {
            size: 1024
          }
          dim {
            size: 30
          }
        }
      }
    }
  }
  attr {
    key: "dtype"
    value {
      type: DT_HALF
    }
  }
  attr {
    key: "seed"
    value {
      i: 0
    }
  }
  attr {
    key: "seed2"
    value {
      i: 0
    }
  }
}
node {
  name: "dense_1/kernel/Initializer/random_uniform/sub"
  op: "Sub"
  input: "dense_1/kernel/Initializer/random_uniform/max"
  input: "dense_1/kernel/Initializer/random_uniform/min"
  attr {
    key: "T"
    value {
      type: DT_HALF
    }
  }
  attr {
    key: "_class"
    value {
      list {
        s: "loc:@dense_1/kernel"
      }
    }
  }
  attr {
    key: "_output_shapes"
    value {
      list {
        shape {
        }
      }
    }
  }
}
node {
  name: "dense_1/kernel/Initializer/random_uniform/mul"
  op: "Mul"
  input: "dense_1/kernel/Initializer/random_uniform/RandomUniform"
  input: "dense_1/kernel/Initializer/random_uniform/sub"
  attr {
    key: "T"
    value {
      type: DT_HALF
    }
  }
  attr {
    key: "_class"
    value {
      list {
        s: "loc:@dense_1/kernel"
      }
    }
  }
  attr {
    key: "_output_shapes"
    value {
      list {
        shape {
          dim {
            size: 1024
          }
          dim {
            size: 30
          }
        }
      }
    }
  }
}
node {
  name: "dense_1/kernel/Initializer/random_uniform"
  op: "Add"
  input: "dense_1/kernel/Initializer/random_uniform/mul"
  input: "dense_1/kernel/Initializer/random_uniform/min"
  attr {
    key: "T"
    value {
      type: DT_HALF
    }
  }
  attr {
    key: "_class"
    value {
      list {
        s: "loc:@dense_1/kernel"
      }
    }
  }
  attr {
    key: "_output_shapes"
    value {
      list {
        shape {
          dim {
            size: 1024
          }
          dim {
            size: 30
          }
        }
      }
    }
  }
}
node {
  name: "dense_1/kernel"
  op: "VariableV2"
  attr {
    key: "_class"
    value {
      list {
        s: "loc:@dense_1/kernel"
      }
    }
  }
  attr {
    key: "_output_shapes"
    value {
      list {
        shape {
          dim {
            size: 1024
          }
          dim {
            size: 30
          }
        }
      }
    }
  }
  attr {
    key: "container"
    value {
      s: ""
    }
  }
  attr {
    key: "dtype"
    value {
      type: DT_HALF
    }
  }
  attr {
    key: "shape"
    value {
      shape {
        dim {
          size: 1024
        }
        dim {
          size: 30
        }
      }
    }
  }
  attr {
    key: "shared_name"
    value {
      s: ""
    }
  }
}
node {
  name: "dense_1/kernel/Assign"
  op: "Assign"
  input: "dense_1/kernel"
  input: "dense_1/kernel/Initializer/random_uniform"
  attr {
    key: "T"
    value {
      type: DT_HALF
    }
  }
  attr {
    key: "_class"
    value {
      list {
        s: "loc:@dense_1/kernel"
      }
    }
  }
  attr {
    key: "_output_shapes"
    value {
      list {
        shape {
          dim {
            size: 1024
          }
          dim {
            size: 30
          }
        }
      }
    }
  }
  attr {
    key: "use_locking"
    value {
      b: true
    }
  }
  attr {
    key: "validate_shape"
    value {
      b: true
    }
  }
}
node {
  name: "dense_1/kernel/read"
  op: "Identity"
  input: "dense_1/kernel"
  attr {
    key: "T"
    value {
      type: DT_HALF
    }
  }
  attr {
    key: "_class"
    value {
      list {
        s: "loc:@dense_1/kernel"
      }
    }
  }
  attr {
    key: "_output_shapes"
    value {
      list {
        shape {
          dim {
            size: 1024
          }
          dim {
            size: 30
          }
        }
      }
    }
  }
}
node {
  name: "dense_1/bias/Initializer/zeros"
  op: "Const"
  attr {
    key: "_class"
    value {
      list {
        s: "loc:@dense_1/bias"
      }
    }
  }
  attr {
    key: "_output_shapes"
    value {
      list {
        shape {
          dim {
            size: 30
          }
        }
      }
    }
  }
  attr {
    key: "dtype"
    value {
      type: DT_HALF
    }
  }
  attr {
    key: "value"
    value {
      tensor {
        dtype: DT_HALF
        tensor_shape {
          dim {
            size: 30
          }
        }
        half_val: 0
      }
    }
  }
}
node {
  name: "dense_1/bias"
  op: "VariableV2"
  attr {
    key: "_class"
    value {
      list {
        s: "loc:@dense_1/bias"
      }
    }
  }
  attr {
    key: "_output_shapes"
    value {
      list {
        shape {
          dim {
            size: 30
          }
        }
      }
    }
  }
  attr {
    key: "container"
    value {
      s: ""
    }
  }
  attr {
    key: "dtype"
    value {
      type: DT_HALF
    }
  }
  attr {
    key: "shape"
    value {
      shape {
        dim {
          size: 30
        }
      }
    }
  }
  attr {
    key: "shared_name"
    value {
      s: ""
    }
  }
}
node {
  name: "dense_1/bias/Assign"
  op: "Assign"
  input: "dense_1/bias"
  input: "dense_1/bias/Initializer/zeros"
  attr {
    key: "T"
    value {
      type: DT_HALF
    }
  }
  attr {
    key: "_class"
    value {
      list {
        s: "loc:@dense_1/bias"
      }
    }
  }
  attr {
    key: "_output_shapes"
    value {
      list {
        shape {
          dim {
            size: 30
          }
        }
      }
    }
  }
  attr {
    key: "use_locking"
    value {
      b: true
    }
  }
  attr {
    key: "validate_shape"
    value {
      b: true
    }
  }
}
node {
  name: "dense_1/bias/read"
  op: "Identity"
  input: "dense_1/bias"
  attr {
    key: "T"
    value {
      type: DT_HALF
    }
  }
  attr {
    key: "_class"
    value {
      list {
        s: "loc:@dense_1/bias"
      }
    }
  }
  attr {
    key: "_output_shapes"
    value {
      list {
        shape {
          dim {
            size: 30
          }
        }
      }
    }
  }
}
node {
  name: "dense_1/MatMul"
  op: "MatMul"
  input: "dropout/dropout/mul_1"
  input: "dense_1/kernel/read"
  attr {
    key: "T"
    value {
      type: DT_HALF
    }
  }
  attr {
    key: "_output_shapes"
    value {
      list {
        shape {
          dim {
            size: -1
          }
          dim {
            size: 30
          }
        }
      }
    }
  }
  attr {
    key: "transpose_a"
    value {
      b: false
    }
  }
  attr {
    key: "transpose_b"
    value {
      b: false
    }
  }
}
node {
  name: "dense_1/BiasAdd"
  op: "BiasAdd"
  input: "dense_1/MatMul"
  input: "dense_1/bias/read"
  attr {
    key: "T"
    value {
      type: DT_HALF
    }
  }
  attr {
    key: "_output_shapes"
    value {
      list {
        shape {
          dim {
            size: -1
          }
          dim {
            size: 30
          }
        }
      }
    }
  }
  attr {
    key: "data_format"
    value {
      s: "NHWC"
    }
  }
}
node {
  name: "dense_1/Relu"
  op: "Relu"
  input: "dense_1/BiasAdd"
  attr {
    key: "T"
    value {
      type: DT_HALF
    }
  }
  attr {
    key: "_output_shapes"
    value {
      list {
        shape {
          dim {
            size: -1
          }
          dim {
            size: 30
          }
        }
      }
    }
  }
}
node {
  name: "ArgMax/dimension"
  op: "Const"
  attr {
    key: "_output_shapes"
    value {
      list {
        shape {
        }
      }
    }
  }
  attr {
    key: "dtype"
    value {
      type: DT_INT32
    }
  }
  attr {
    key: "value"
    value {
      tensor {
        dtype: DT_INT32
        tensor_shape {
        }
        int_val: 1
      }
    }
  }
}
node {
  name: "ArgMax"
  op: "ArgMax"
  input: "dense_1/Relu"
  input: "ArgMax/dimension"
  attr {
    key: "T"
    value {
      type: DT_HALF
    }
  }
  attr {
    key: "Tidx"
    value {
      type: DT_INT32
    }
  }
  attr {
    key: "_output_shapes"
    value {
      list {
        shape {
          dim {
            size: -1
          }
        }
      }
    }
  }
  attr {
    key: "output_type"
    value {
      type: DT_INT64
    }
  }
}
node {
  name: "softmax_tensor"
  op: "Softmax"
  input: "dense_1/Relu"
  attr {
    key: "T"
    value {
      type: DT_HALF
    }
  }
  attr {
    key: "_output_shapes"
    value {
      list {
        shape {
          dim {
            size: -1
          }
          dim {
            size: 30
          }
        }
      }
    }
  }
}
node {
  name: "Cast"
  op: "Cast"
  input: "IteratorGetNext:1"
  attr {
    key: "DstT"
    value {
      type: DT_INT32
    }
  }
  attr {
    key: "SrcT"
    value {
      type: DT_INT64
    }
  }
  attr {
    key: "Truncate"
    value {
      b: false
    }
  }
  attr {
    key: "_output_shapes"
    value {
      list {
        shape {
          dim {
            size: -1
          }
        }
      }
    }
  }
}
node {
  name: "one_hot/on_value"
  op: "Const"
  attr {
    key: "_output_shapes"
    value {
      list {
        shape {
        }
      }
    }
  }
  attr {
    key: "dtype"
    value {
      type: DT_FLOAT
    }
  }
  attr {
    key: "value"
    value {
      tensor {
        dtype: DT_FLOAT
        tensor_shape {
        }
        float_val: 1.0
      }
    }
  }
}
node {
  name: "one_hot/off_value"
  op: "Const"
  attr {
    key: "_output_shapes"
    value {
      list {
        shape {
        }
      }
    }
  }
  attr {
    key: "dtype"
    value {
      type: DT_FLOAT
    }
  }
  attr {
    key: "value"
    value {
      tensor {
        dtype: DT_FLOAT
        tensor_shape {
        }
        float_val: 0.0
      }
    }
  }
}
node {
  name: "one_hot/depth"
  op: "Const"
  attr {
    key: "_output_shapes"
    value {
      list {
        shape {
        }
      }
    }
  }
  attr {
    key: "dtype"
    value {
      type: DT_INT32
    }
  }
  attr {
    key: "value"
    value {
      tensor {
        dtype: DT_INT32
        tensor_shape {
        }
        int_val: 30
      }
    }
  }
}
node {
  name: "one_hot"
  op: "OneHot"
  input: "Cast"
  input: "one_hot/depth"
  input: "one_hot/on_value"
  input: "one_hot/off_value"
  attr {
    key: "T"
    value {
      type: DT_FLOAT
    }
  }
  attr {
    key: "TI"
    value {
      type: DT_INT32
    }
  }
  attr {
    key: "_output_shapes"
    value {
      list {
        shape {
          dim {
            size: -1
          }
          dim {
            size: 30
          }
        }
      }
    }
  }
  attr {
    key: "axis"
    value {
      i: -1
    }
  }
}
node {
  name: "softmax_cross_entropy_loss/Cast"
  op: "Cast"
  input: "one_hot"
  attr {
    key: "DstT"
    value {
      type: DT_HALF
    }
  }
  attr {
    key: "SrcT"
    value {
      type: DT_FLOAT
    }
  }
  attr {
    key: "Truncate"
    value {
      b: false
    }
  }
  attr {
    key: "_output_shapes"
    value {
      list {
        shape {
          dim {
            size: -1
          }
          dim {
            size: 30
          }
        }
      }
    }
  }
}
node {
  name: "softmax_cross_entropy_loss/labels_stop_gradient"
  op: "StopGradient"
  input: "softmax_cross_entropy_loss/Cast"
  attr {
    key: "T"
    value {
      type: DT_HALF
    }
  }
  attr {
    key: "_output_shapes"
    value {
      list {
        shape {
          dim {
            size: -1
          }
          dim {
            size: 30
          }
        }
      }
    }
  }
}
node {
  name: "softmax_cross_entropy_loss/xentropy/Cast"
  op: "Cast"
  input: "dense_1/Relu"
  attr {
    key: "DstT"
    value {
      type: DT_FLOAT
    }
  }
  attr {
    key: "SrcT"
    value {
      type: DT_HALF
    }
  }
  attr {
    key: "Truncate"
    value {
      b: false
    }
  }
  attr {
    key: "_output_shapes"
    value {
      list {
        shape {
          dim {
            size: -1
          }
          dim {
            size: 30
          }
        }
      }
    }
  }
}
node {
  name: "softmax_cross_entropy_loss/xentropy/Cast_1"
  op: "Cast"
  input: "softmax_cross_entropy_loss/labels_stop_gradient"
  attr {
    key: "DstT"
    value {
      type: DT_FLOAT
    }
  }
  attr {
    key: "SrcT"
    value {
      type: DT_HALF
    }
  }
  attr {
    key: "Truncate"
    value {
      b: false
    }
  }
  attr {
    key: "_output_shapes"
    value {
      list {
        shape {
          dim {
            size: -1
          }
          dim {
            size: 30
          }
        }
      }
    }
  }
}
node {
  name: "softmax_cross_entropy_loss/xentropy/Rank"
  op: "Const"
  attr {
    key: "_output_shapes"
    value {
      list {
        shape {
        }
      }
    }
  }
  attr {
    key: "dtype"
    value {
      type: DT_INT32
    }
  }
  attr {
    key: "value"
    value {
      tensor {
        dtype: DT_INT32
        tensor_shape {
        }
        int_val: 2
      }
    }
  }
}
node {
  name: "softmax_cross_entropy_loss/xentropy/Shape"
  op: "Shape"
  input: "softmax_cross_entropy_loss/xentropy/Cast"
  attr {
    key: "T"
    value {
      type: DT_FLOAT
    }
  }
  attr {
    key: "_output_shapes"
    value {
      list {
        shape {
          dim {
            size: 2
          }
        }
      }
    }
  }
  attr {
    key: "out_type"
    value {
      type: DT_INT32
    }
  }
}
node {
  name: "softmax_cross_entropy_loss/xentropy/Rank_1"
  op: "Const"
  attr {
    key: "_output_shapes"
    value {
      list {
        shape {
        }
      }
    }
  }
  attr {
    key: "dtype"
    value {
      type: DT_INT32
    }
  }
  attr {
    key: "value"
    value {
      tensor {
        dtype: DT_INT32
        tensor_shape {
        }
        int_val: 2
      }
    }
  }
}
node {
  name: "softmax_cross_entropy_loss/xentropy/Shape_1"
  op: "Shape"
  input: "softmax_cross_entropy_loss/xentropy/Cast"
  attr {
    key: "T"
    value {
      type: DT_FLOAT
    }
  }
  attr {
    key: "_output_shapes"
    value {
      list {
        shape {
          dim {
            size: 2
          }
        }
      }
    }
  }
  attr {
    key: "out_type"
    value {
      type: DT_INT32
    }
  }
}
node {
  name: "softmax_cross_entropy_loss/xentropy/Sub/y"
  op: "Const"
  attr {
    key: "_output_shapes"
    value {
      list {
        shape {
        }
      }
    }
  }
  attr {
    key: "dtype"
    value {
      type: DT_INT32
    }
  }
  attr {
    key: "value"
    value {
      tensor {
        dtype: DT_INT32
        tensor_shape {
        }
        int_val: 1
      }
    }
  }
}
node {
  name: "softmax_cross_entropy_loss/xentropy/Sub"
  op: "Sub"
  input: "softmax_cross_entropy_loss/xentropy/Rank_1"
  input: "softmax_cross_entropy_loss/xentropy/Sub/y"
  attr {
    key: "T"
    value {
      type: DT_INT32
    }
  }
  attr {
    key: "_output_shapes"
    value {
      list {
        shape {
        }
      }
    }
  }
}
node {
  name: "softmax_cross_entropy_loss/xentropy/Slice/begin"
  op: "Pack"
  input: "softmax_cross_entropy_loss/xentropy/Sub"
  attr {
    key: "N"
    value {
      i: 1
    }
  }
  attr {
    key: "T"
    value {
      type: DT_INT32
    }
  }
  attr {
    key: "_output_shapes"
    value {
      list {
        shape {
          dim {
            size: 1
          }
        }
      }
    }
  }
  attr {
    key: "axis"
    value {
      i: 0
    }
  }
}
node {
  name: "softmax_cross_entropy_loss/xentropy/Slice/size"
  op: "Const"
  attr {
    key: "_output_shapes"
    value {
      list {
        shape {
          dim {
            size: 1
          }
        }
      }
    }
  }
  attr {
    key: "dtype"
    value {
      type: DT_INT32
    }
  }
  attr {
    key: "value"
    value {
      tensor {
        dtype: DT_INT32
        tensor_shape {
          dim {
            size: 1
          }
        }
        int_val: 1
      }
    }
  }
}
node {
  name: "softmax_cross_entropy_loss/xentropy/Slice"
  op: "Slice"
  input: "softmax_cross_entropy_loss/xentropy/Shape_1"
  input: "softmax_cross_entropy_loss/xentropy/Slice/begin"
  input: "softmax_cross_entropy_loss/xentropy/Slice/size"
  attr {
    key: "Index"
    value {
      type: DT_INT32
    }
  }
  attr {
    key: "T"
    value {
      type: DT_INT32
    }
  }
  attr {
    key: "_output_shapes"
    value {
      list {
        shape {
          dim {
            size: 1
          }
        }
      }
    }
  }
}
node {
  name: "softmax_cross_entropy_loss/xentropy/concat/values_0"
  op: "Const"
  attr {
    key: "_output_shapes"
    value {
      list {
        shape {
          dim {
            size: 1
          }
        }
      }
    }
  }
  attr {
    key: "dtype"
    value {
      type: DT_INT32
    }
  }
  attr {
    key: "value"
    value {
      tensor {
        dtype: DT_INT32
        tensor_shape {
          dim {
            size: 1
          }
        }
        int_val: -1
      }
    }
  }
}
node {
  name: "softmax_cross_entropy_loss/xentropy/concat/axis"
  op: "Const"
  attr {
    key: "_output_shapes"
    value {
      list {
        shape {
        }
      }
    }
  }
  attr {
    key: "dtype"
    value {
      type: DT_INT32
    }
  }
  attr {
    key: "value"
    value {
      tensor {
        dtype: DT_INT32
        tensor_shape {
        }
        int_val: 0
      }
    }
  }
}
node {
  name: "softmax_cross_entropy_loss/xentropy/concat"
  op: "ConcatV2"
  input: "softmax_cross_entropy_loss/xentropy/concat/values_0"
  input: "softmax_cross_entropy_loss/xentropy/Slice"
  input: "softmax_cross_entropy_loss/xentropy/concat/axis"
  attr {
    key: "N"
    value {
      i: 2
    }
  }
  attr {
    key: "T"
    value {
      type: DT_INT32
    }
  }
  attr {
    key: "Tidx"
    value {
      type: DT_INT32
    }
  }
  attr {
    key: "_output_shapes"
    value {
      list {
        shape {
          dim {
            size: 2
          }
        }
      }
    }
  }
}
node {
  name: "softmax_cross_entropy_loss/xentropy/Reshape"
  op: "Reshape"
  input: "softmax_cross_entropy_loss/xentropy/Cast"
  input: "softmax_cross_entropy_loss/xentropy/concat"
  attr {
    key: "T"
    value {
      type: DT_FLOAT
    }
  }
  attr {
    key: "Tshape"
    value {
      type: DT_INT32
    }
  }
  attr {
    key: "_output_shapes"
    value {
      list {
        shape {
          dim {
            size: -1
          }
          dim {
            size: -1
          }
        }
      }
    }
  }
}
node {
  name: "softmax_cross_entropy_loss/xentropy/Rank_2"
  op: "Const"
  attr {
    key: "_output_shapes"
    value {
      list {
        shape {
        }
      }
    }
  }
  attr {
    key: "dtype"
    value {
      type: DT_INT32
    }
  }
  attr {
    key: "value"
    value {
      tensor {
        dtype: DT_INT32
        tensor_shape {
        }
        int_val: 2
      }
    }
  }
}
node {
  name: "softmax_cross_entropy_loss/xentropy/Shape_2"
  op: "Shape"
  input: "softmax_cross_entropy_loss/xentropy/Cast_1"
  attr {
    key: "T"
    value {
      type: DT_FLOAT
    }
  }
  attr {
    key: "_output_shapes"
    value {
      list {
        shape {
          dim {
            size: 2
          }
        }
      }
    }
  }
  attr {
    key: "out_type"
    value {
      type: DT_INT32
    }
  }
}
node {
  name: "softmax_cross_entropy_loss/xentropy/Sub_1/y"
  op: "Const"
  attr {
    key: "_output_shapes"
    value {
      list {
        shape {
        }
      }
    }
  }
  attr {
    key: "dtype"
    value {
      type: DT_INT32
    }
  }
  attr {
    key: "value"
    value {
      tensor {
        dtype: DT_INT32
        tensor_shape {
        }
        int_val: 1
      }
    }
  }
}
node {
  name: "softmax_cross_entropy_loss/xentropy/Sub_1"
  op: "Sub"
  input: "softmax_cross_entropy_loss/xentropy/Rank_2"
  input: "softmax_cross_entropy_loss/xentropy/Sub_1/y"
  attr {
    key: "T"
    value {
      type: DT_INT32
    }
  }
  attr {
    key: "_output_shapes"
    value {
      list {
        shape {
        }
      }
    }
  }
}
node {
  name: "softmax_cross_entropy_loss/xentropy/Slice_1/begin"
  op: "Pack"
  input: "softmax_cross_entropy_loss/xentropy/Sub_1"
  attr {
    key: "N"
    value {
      i: 1
    }
  }
  attr {
    key: "T"
    value {
      type: DT_INT32
    }
  }
  attr {
    key: "_output_shapes"
    value {
      list {
        shape {
          dim {
            size: 1
          }
        }
      }
    }
  }
  attr {
    key: "axis"
    value {
      i: 0
    }
  }
}
node {
  name: "softmax_cross_entropy_loss/xentropy/Slice_1/size"
  op: "Const"
  attr {
    key: "_output_shapes"
    value {
      list {
        shape {
          dim {
            size: 1
          }
        }
      }
    }
  }
  attr {
    key: "dtype"
    value {
      type: DT_INT32
    }
  }
  attr {
    key: "value"
    value {
      tensor {
        dtype: DT_INT32
        tensor_shape {
          dim {
            size: 1
          }
        }
        int_val: 1
      }
    }
  }
}
node {
  name: "softmax_cross_entropy_loss/xentropy/Slice_1"
  op: "Slice"
  input: "softmax_cross_entropy_loss/xentropy/Shape_2"
  input: "softmax_cross_entropy_loss/xentropy/Slice_1/begin"
  input: "softmax_cross_entropy_loss/xentropy/Slice_1/size"
  attr {
    key: "Index"
    value {
      type: DT_INT32
    }
  }
  attr {
    key: "T"
    value {
      type: DT_INT32
    }
  }
  attr {
    key: "_output_shapes"
    value {
      list {
        shape {
          dim {
            size: 1
          }
        }
      }
    }
  }
}
node {
  name: "softmax_cross_entropy_loss/xentropy/concat_1/values_0"
  op: "Const"
  attr {
    key: "_output_shapes"
    value {
      list {
        shape {
          dim {
            size: 1
          }
        }
      }
    }
  }
  attr {
    key: "dtype"
    value {
      type: DT_INT32
    }
  }
  attr {
    key: "value"
    value {
      tensor {
        dtype: DT_INT32
        tensor_shape {
          dim {
            size: 1
          }
        }
        int_val: -1
      }
    }
  }
}
node {
  name: "softmax_cross_entropy_loss/xentropy/concat_1/axis"
  op: "Const"
  attr {
    key: "_output_shapes"
    value {
      list {
        shape {
        }
      }
    }
  }
  attr {
    key: "dtype"
    value {
      type: DT_INT32
    }
  }
  attr {
    key: "value"
    value {
      tensor {
        dtype: DT_INT32
        tensor_shape {
        }
        int_val: 0
      }
    }
  }
}
node {
  name: "softmax_cross_entropy_loss/xentropy/concat_1"
  op: "ConcatV2"
  input: "softmax_cross_entropy_loss/xentropy/concat_1/values_0"
  input: "softmax_cross_entropy_loss/xentropy/Slice_1"
  input: "softmax_cross_entropy_loss/xentropy/concat_1/axis"
  attr {
    key: "N"
    value {
      i: 2
    }
  }
  attr {
    key: "T"
    value {
      type: DT_INT32
    }
  }
  attr {
    key: "Tidx"
    value {
      type: DT_INT32
    }
  }
  attr {
    key: "_output_shapes"
    value {
      list {
        shape {
          dim {
            size: 2
          }
        }
      }
    }
  }
}
node {
  name: "softmax_cross_entropy_loss/xentropy/Reshape_1"
  op: "Reshape"
  input: "softmax_cross_entropy_loss/xentropy/Cast_1"
  input: "softmax_cross_entropy_loss/xentropy/concat_1"
  attr {
    key: "T"
    value {
      type: DT_FLOAT
    }
  }
  attr {
    key: "Tshape"
    value {
      type: DT_INT32
    }
  }
  attr {
    key: "_output_shapes"
    value {
      list {
        shape {
          dim {
            size: -1
          }
          dim {
            size: -1
          }
        }
      }
    }
  }
}
node {
  name: "softmax_cross_entropy_loss/xentropy"
  op: "SoftmaxCrossEntropyWithLogits"
  input: "softmax_cross_entropy_loss/xentropy/Reshape"
  input: "softmax_cross_entropy_loss/xentropy/Reshape_1"
  attr {
    key: "T"
    value {
      type: DT_FLOAT
    }
  }
  attr {
    key: "_output_shapes"
    value {
      list {
        shape {
          dim {
            size: -1
          }
        }
        shape {
          dim {
            size: -1
          }
          dim {
            size: -1
          }
        }
      }
    }
  }
}
node {
  name: "softmax_cross_entropy_loss/xentropy/Sub_2/y"
  op: "Const"
  attr {
    key: "_output_shapes"
    value {
      list {
        shape {
        }
      }
    }
  }
  attr {
    key: "dtype"
    value {
      type: DT_INT32
    }
  }
  attr {
    key: "value"
    value {
      tensor {
        dtype: DT_INT32
        tensor_shape {
        }
        int_val: 1
      }
    }
  }
}
node {
  name: "softmax_cross_entropy_loss/xentropy/Sub_2"
  op: "Sub"
  input: "softmax_cross_entropy_loss/xentropy/Rank"
  input: "softmax_cross_entropy_loss/xentropy/Sub_2/y"
  attr {
    key: "T"
    value {
      type: DT_INT32
    }
  }
  attr {
    key: "_output_shapes"
    value {
      list {
        shape {
        }
      }
    }
  }
}
node {
  name: "softmax_cross_entropy_loss/xentropy/Slice_2/begin"
  op: "Const"
  attr {
    key: "_output_shapes"
    value {
      list {
        shape {
          dim {
            size: 1
          }
        }
      }
    }
  }
  attr {
    key: "dtype"
    value {
      type: DT_INT32
    }
  }
  attr {
    key: "value"
    value {
      tensor {
        dtype: DT_INT32
        tensor_shape {
          dim {
            size: 1
          }
        }
        int_val: 0
      }
    }
  }
}
node {
  name: "softmax_cross_entropy_loss/xentropy/Slice_2/size"
  op: "Pack"
  input: "softmax_cross_entropy_loss/xentropy/Sub_2"
  attr {
    key: "N"
    value {
      i: 1
    }
  }
  attr {
    key: "T"
    value {
      type: DT_INT32
    }
  }
  attr {
    key: "_output_shapes"
    value {
      list {
        shape {
          dim {
            size: 1
          }
        }
      }
    }
  }
  attr {
    key: "axis"
    value {
      i: 0
    }
  }
}
node {
  name: "softmax_cross_entropy_loss/xentropy/Slice_2"
  op: "Slice"
  input: "softmax_cross_entropy_loss/xentropy/Shape"
  input: "softmax_cross_entropy_loss/xentropy/Slice_2/begin"
  input: "softmax_cross_entropy_loss/xentropy/Slice_2/size"
  attr {
    key: "Index"
    value {
      type: DT_INT32
    }
  }
  attr {
    key: "T"
    value {
      type: DT_INT32
    }
  }
  attr {
    key: "_output_shapes"
    value {
      list {
        shape {
          dim {
            size: 1
          }
        }
      }
    }
  }
}
node {
  name: "softmax_cross_entropy_loss/xentropy/Reshape_2"
  op: "Reshape"
  input: "softmax_cross_entropy_loss/xentropy"
  input: "softmax_cross_entropy_loss/xentropy/Slice_2"
  attr {
    key: "T"
    value {
      type: DT_FLOAT
    }
  }
  attr {
    key: "Tshape"
    value {
      type: DT_INT32
    }
  }
  attr {
    key: "_output_shapes"
    value {
      list {
        shape {
          dim {
            size: -1
          }
        }
      }
    }
  }
}
node {
  name: "softmax_cross_entropy_loss/xentropy/Cast_2"
  op: "Cast"
  input: "softmax_cross_entropy_loss/xentropy/Reshape_2"
  attr {
    key: "DstT"
    value {
      type: DT_HALF
    }
  }
  attr {
    key: "SrcT"
    value {
      type: DT_FLOAT
    }
  }
  attr {
    key: "Truncate"
    value {
      b: false
    }
  }
  attr {
    key: "_output_shapes"
    value {
      list {
        shape {
          dim {
            size: -1
          }
        }
      }
    }
  }
}
node {
  name: "softmax_cross_entropy_loss/assert_broadcastable/weights"
  op: "Const"
  attr {
    key: "_output_shapes"
    value {
      list {
        shape {
        }
      }
    }
  }
  attr {
    key: "dtype"
    value {
      type: DT_FLOAT
    }
  }
  attr {
    key: "value"
    value {
      tensor {
        dtype: DT_FLOAT
        tensor_shape {
        }
        float_val: 1.0
      }
    }
  }
}
node {
  name: "softmax_cross_entropy_loss/assert_broadcastable/weights/shape"
  op: "Const"
  attr {
    key: "_output_shapes"
    value {
      list {
        shape {
          dim {
          }
        }
      }
    }
  }
  attr {
    key: "dtype"
    value {
      type: DT_INT32
    }
  }
  attr {
    key: "value"
    value {
      tensor {
        dtype: DT_INT32
        tensor_shape {
          dim {
          }
        }
      }
    }
  }
}
node {
  name: "softmax_cross_entropy_loss/assert_broadcastable/weights/rank"
  op: "Const"
  attr {
    key: "_output_shapes"
    value {
      list {
        shape {
        }
      }
    }
  }
  attr {
    key: "dtype"
    value {
      type: DT_INT32
    }
  }
  attr {
    key: "value"
    value {
      tensor {
        dtype: DT_INT32
        tensor_shape {
        }
        int_val: 0
      }
    }
  }
}
node {
  name: "softmax_cross_entropy_loss/assert_broadcastable/values/shape"
  op: "Shape"
  input: "softmax_cross_entropy_loss/xentropy/Cast_2"
  attr {
    key: "T"
    value {
      type: DT_HALF
    }
  }
  attr {
    key: "_output_shapes"
    value {
      list {
        shape {
          dim {
            size: 1
          }
        }
      }
    }
  }
  attr {
    key: "out_type"
    value {
      type: DT_INT32
    }
  }
}
node {
  name: "softmax_cross_entropy_loss/assert_broadcastable/values/rank"
  op: "Const"
  attr {
    key: "_output_shapes"
    value {
      list {
        shape {
        }
      }
    }
  }
  attr {
    key: "dtype"
    value {
      type: DT_INT32
    }
  }
  attr {
    key: "value"
    value {
      tensor {
        dtype: DT_INT32
        tensor_shape {
        }
        int_val: 1
      }
    }
  }
}
node {
  name: "softmax_cross_entropy_loss/assert_broadcastable/static_scalar_check_success"
  op: "NoOp"
}
node {
  name: "softmax_cross_entropy_loss/Cast_1"
  op: "Cast"
  input: "softmax_cross_entropy_loss/xentropy/Cast_2"
  input: "^softmax_cross_entropy_loss/assert_broadcastable/static_scalar_check_success"
  attr {
    key: "DstT"
    value {
      type: DT_FLOAT
    }
  }
  attr {
    key: "SrcT"
    value {
      type: DT_HALF
    }
  }
  attr {
    key: "Truncate"
    value {
      b: false
    }
  }
  attr {
    key: "_output_shapes"
    value {
      list {
        shape {
          dim {
            size: -1
          }
        }
      }
    }
  }
}
node {
  name: "softmax_cross_entropy_loss/Cast_2/x"
  op: "Const"
  input: "^softmax_cross_entropy_loss/assert_broadcastable/static_scalar_check_success"
  attr {
    key: "_output_shapes"
    value {
      list {
        shape {
        }
      }
    }
  }
  attr {
    key: "dtype"
    value {
      type: DT_FLOAT
    }
  }
  attr {
    key: "value"
    value {
      tensor {
        dtype: DT_FLOAT
        tensor_shape {
        }
        float_val: 1.0
      }
    }
  }
}
node {
  name: "softmax_cross_entropy_loss/Mul"
  op: "Mul"
  input: "softmax_cross_entropy_loss/Cast_1"
  input: "softmax_cross_entropy_loss/Cast_2/x"
  attr {
    key: "T"
    value {
      type: DT_FLOAT
    }
  }
  attr {
    key: "_output_shapes"
    value {
      list {
        shape {
          dim {
            size: -1
          }
        }
      }
    }
  }
}
node {
  name: "softmax_cross_entropy_loss/Const"
  op: "Const"
  input: "^softmax_cross_entropy_loss/assert_broadcastable/static_scalar_check_success"
  attr {
    key: "_output_shapes"
    value {
      list {
        shape {
          dim {
            size: 1
          }
        }
      }
    }
  }
  attr {
    key: "dtype"
    value {
      type: DT_INT32
    }
  }
  attr {
    key: "value"
    value {
      tensor {
        dtype: DT_INT32
        tensor_shape {
          dim {
            size: 1
          }
        }
        int_val: 0
      }
    }
  }
}
node {
  name: "softmax_cross_entropy_loss/Sum"
  op: "Sum"
  input: "softmax_cross_entropy_loss/Mul"
  input: "softmax_cross_entropy_loss/Const"
  attr {
    key: "T"
    value {
      type: DT_FLOAT
    }
  }
  attr {
    key: "Tidx"
    value {
      type: DT_INT32
    }
  }
  attr {
    key: "_output_shapes"
    value {
      list {
        shape {
        }
      }
    }
  }
  attr {
    key: "keep_dims"
    value {
      b: false
    }
  }
}
node {
  name: "softmax_cross_entropy_loss/num_present/Equal/y"
  op: "Const"
  input: "^softmax_cross_entropy_loss/assert_broadcastable/static_scalar_check_success"
  attr {
    key: "_output_shapes"
    value {
      list {
        shape {
        }
      }
    }
  }
  attr {
    key: "dtype"
    value {
      type: DT_FLOAT
    }
  }
  attr {
    key: "value"
    value {
      tensor {
        dtype: DT_FLOAT
        tensor_shape {
        }
        float_val: 0.0
      }
    }
  }
}
node {
  name: "softmax_cross_entropy_loss/num_present/Equal"
  op: "Equal"
  input: "softmax_cross_entropy_loss/Cast_2/x"
  input: "softmax_cross_entropy_loss/num_present/Equal/y"
  attr {
    key: "T"
    value {
      type: DT_FLOAT
    }
  }
  attr {
    key: "_output_shapes"
    value {
      list {
        shape {
        }
      }
    }
  }
}
node {
  name: "softmax_cross_entropy_loss/num_present/zeros_like"
  op: "Const"
  input: "^softmax_cross_entropy_loss/assert_broadcastable/static_scalar_check_success"
  attr {
    key: "_output_shapes"
    value {
      list {
        shape {
        }
      }
    }
  }
  attr {
    key: "dtype"
    value {
      type: DT_FLOAT
    }
  }
  attr {
    key: "value"
    value {
      tensor {
        dtype: DT_FLOAT
        tensor_shape {
        }
        float_val: 0.0
      }
    }
  }
}
node {
  name: "softmax_cross_entropy_loss/num_present/ones_like/Shape"
  op: "Const"
  input: "^softmax_cross_entropy_loss/assert_broadcastable/static_scalar_check_success"
  attr {
    key: "_output_shapes"
    value {
      list {
        shape {
          dim {
          }
        }
      }
    }
  }
  attr {
    key: "dtype"
    value {
      type: DT_INT32
    }
  }
  attr {
    key: "value"
    value {
      tensor {
        dtype: DT_INT32
        tensor_shape {
          dim {
          }
        }
      }
    }
  }
}
node {
  name: "softmax_cross_entropy_loss/num_present/ones_like/Const"
  op: "Const"
  input: "^softmax_cross_entropy_loss/assert_broadcastable/static_scalar_check_success"
  attr {
    key: "_output_shapes"
    value {
      list {
        shape {
        }
      }
    }
  }
  attr {
    key: "dtype"
    value {
      type: DT_FLOAT
    }
  }
  attr {
    key: "value"
    value {
      tensor {
        dtype: DT_FLOAT
        tensor_shape {
        }
        float_val: 1.0
      }
    }
  }
}
node {
  name: "softmax_cross_entropy_loss/num_present/ones_like"
  op: "Fill"
  input: "softmax_cross_entropy_loss/num_present/ones_like/Shape"
  input: "softmax_cross_entropy_loss/num_present/ones_like/Const"
  attr {
    key: "T"
    value {
      type: DT_FLOAT
    }
  }
  attr {
    key: "_output_shapes"
    value {
      list {
        shape {
        }
      }
    }
  }
  attr {
    key: "index_type"
    value {
      type: DT_INT32
    }
  }
}
node {
  name: "softmax_cross_entropy_loss/num_present/Select"
  op: "Select"
  input: "softmax_cross_entropy_loss/num_present/Equal"
  input: "softmax_cross_entropy_loss/num_present/zeros_like"
  input: "softmax_cross_entropy_loss/num_present/ones_like"
  attr {
    key: "T"
    value {
      type: DT_FLOAT
    }
  }
  attr {
    key: "_output_shapes"
    value {
      list {
        shape {
        }
      }
    }
  }
}
node {
  name: "softmax_cross_entropy_loss/num_present/broadcast_weights/assert_broadcastable/weights/shape"
  op: "Const"
  input: "^softmax_cross_entropy_loss/assert_broadcastable/static_scalar_check_success"
  attr {
    key: "_output_shapes"
    value {
      list {
        shape {
          dim {
          }
        }
      }
    }
  }
  attr {
    key: "dtype"
    value {
      type: DT_INT32
    }
  }
  attr {
    key: "value"
    value {
      tensor {
        dtype: DT_INT32
        tensor_shape {
          dim {
          }
        }
      }
    }
  }
}
node {
  name: "softmax_cross_entropy_loss/num_present/broadcast_weights/assert_broadcastable/weights/rank"
  op: "Const"
  input: "^softmax_cross_entropy_loss/assert_broadcastable/static_scalar_check_success"
  attr {
    key: "_output_shapes"
    value {
      list {
        shape {
        }
      }
    }
  }
  attr {
    key: "dtype"
    value {
      type: DT_INT32
    }
  }
  attr {
    key: "value"
    value {
      tensor {
        dtype: DT_INT32
        tensor_shape {
        }
        int_val: 0
      }
    }
  }
}
node {
  name: "softmax_cross_entropy_loss/num_present/broadcast_weights/assert_broadcastable/values/shape"
  op: "Shape"
  input: "softmax_cross_entropy_loss/Cast_1"
  attr {
    key: "T"
    value {
      type: DT_FLOAT
    }
  }
  attr {
    key: "_output_shapes"
    value {
      list {
        shape {
          dim {
            size: 1
          }
        }
      }
    }
  }
  attr {
    key: "out_type"
    value {
      type: DT_INT32
    }
  }
}
node {
  name: "softmax_cross_entropy_loss/num_present/broadcast_weights/assert_broadcastable/values/rank"
  op: "Const"
  input: "^softmax_cross_entropy_loss/assert_broadcastable/static_scalar_check_success"
  attr {
    key: "_output_shapes"
    value {
      list {
        shape {
        }
      }
    }
  }
  attr {
    key: "dtype"
    value {
      type: DT_INT32
    }
  }
  attr {
    key: "value"
    value {
      tensor {
        dtype: DT_INT32
        tensor_shape {
        }
        int_val: 1
      }
    }
  }
}
node {
  name: "softmax_cross_entropy_loss/num_present/broadcast_weights/assert_broadcastable/static_scalar_check_success"
  op: "NoOp"
  input: "^softmax_cross_entropy_loss/assert_broadcastable/static_scalar_check_success"
}
node {
  name: "softmax_cross_entropy_loss/num_present/broadcast_weights/ones_like/Shape"
  op: "Shape"
  input: "softmax_cross_entropy_loss/Cast_1"
  input: "^softmax_cross_entropy_loss/num_present/broadcast_weights/assert_broadcastable/static_scalar_check_success"
  attr {
    key: "T"
    value {
      type: DT_FLOAT
    }
  }
  attr {
    key: "_output_shapes"
    value {
      list {
        shape {
          dim {
            size: 1
          }
        }
      }
    }
  }
  attr {
    key: "out_type"
    value {
      type: DT_INT32
    }
  }
}
node {
  name: "softmax_cross_entropy_loss/num_present/broadcast_weights/ones_like/Const"
  op: "Const"
  input: "^softmax_cross_entropy_loss/assert_broadcastable/static_scalar_check_success"
  input: "^softmax_cross_entropy_loss/num_present/broadcast_weights/assert_broadcastable/static_scalar_check_success"
  attr {
    key: "_output_shapes"
    value {
      list {
        shape {
        }
      }
    }
  }
  attr {
    key: "dtype"
    value {
      type: DT_FLOAT
    }
  }
  attr {
    key: "value"
    value {
      tensor {
        dtype: DT_FLOAT
        tensor_shape {
        }
        float_val: 1.0
      }
    }
  }
}
node {
  name: "softmax_cross_entropy_loss/num_present/broadcast_weights/ones_like"
  op: "Fill"
  input: "softmax_cross_entropy_loss/num_present/broadcast_weights/ones_like/Shape"
  input: "softmax_cross_entropy_loss/num_present/broadcast_weights/ones_like/Const"
  attr {
    key: "T"
    value {
      type: DT_FLOAT
    }
  }
  attr {
    key: "_output_shapes"
    value {
      list {
        shape {
          dim {
            size: -1
          }
        }
      }
    }
  }
  attr {
    key: "index_type"
    value {
      type: DT_INT32
    }
  }
}
node {
  name: "softmax_cross_entropy_loss/num_present/broadcast_weights"
  op: "Mul"
  input: "softmax_cross_entropy_loss/num_present/Select"
  input: "softmax_cross_entropy_loss/num_present/broadcast_weights/ones_like"
  attr {
    key: "T"
    value {
      type: DT_FLOAT
    }
  }
  attr {
    key: "_output_shapes"
    value {
      list {
        shape {
          dim {
            size: -1
          }
        }
      }
    }
  }
}
node {
  name: "softmax_cross_entropy_loss/num_present/Const"
  op: "Const"
  input: "^softmax_cross_entropy_loss/assert_broadcastable/static_scalar_check_success"
  attr {
    key: "_output_shapes"
    value {
      list {
        shape {
          dim {
            size: 1
          }
        }
      }
    }
  }
  attr {
    key: "dtype"
    value {
      type: DT_INT32
    }
  }
  attr {
    key: "value"
    value {
      tensor {
        dtype: DT_INT32
        tensor_shape {
          dim {
            size: 1
          }
        }
        int_val: 0
      }
    }
  }
}
node {
  name: "softmax_cross_entropy_loss/num_present"
  op: "Sum"
  input: "softmax_cross_entropy_loss/num_present/broadcast_weights"
  input: "softmax_cross_entropy_loss/num_present/Const"
  attr {
    key: "T"
    value {
      type: DT_FLOAT
    }
  }
  attr {
    key: "Tidx"
    value {
      type: DT_INT32
    }
  }
  attr {
    key: "_output_shapes"
    value {
      list {
        shape {
        }
      }
    }
  }
  attr {
    key: "keep_dims"
    value {
      b: false
    }
  }
}
node {
  name: "softmax_cross_entropy_loss/Const_1"
  op: "Const"
  input: "^softmax_cross_entropy_loss/assert_broadcastable/static_scalar_check_success"
  attr {
    key: "_output_shapes"
    value {
      list {
        shape {
          dim {
          }
        }
      }
    }
  }
  attr {
    key: "dtype"
    value {
      type: DT_INT32
    }
  }
  attr {
    key: "value"
    value {
      tensor {
        dtype: DT_INT32
        tensor_shape {
          dim {
          }
        }
      }
    }
  }
}
node {
  name: "softmax_cross_entropy_loss/Sum_1"
  op: "Sum"
  input: "softmax_cross_entropy_loss/Sum"
  input: "softmax_cross_entropy_loss/Const_1"
  attr {
    key: "T"
    value {
      type: DT_FLOAT
    }
  }
  attr {
    key: "Tidx"
    value {
      type: DT_INT32
    }
  }
  attr {
    key: "_output_shapes"
    value {
      list {
        shape {
        }
      }
    }
  }
  attr {
    key: "keep_dims"
    value {
      b: false
    }
  }
}
node {
  name: "softmax_cross_entropy_loss/value"
  op: "DivNoNan"
  input: "softmax_cross_entropy_loss/Sum_1"
  input: "softmax_cross_entropy_loss/num_present"
  attr {
    key: "T"
    value {
      type: DT_FLOAT
    }
  }
  attr {
    key: "_output_shapes"
    value {
      list {
        shape {
        }
      }
    }
  }
}
node {
  name: "softmax_cross_entropy_loss/Cast_3"
  op: "Cast"
  input: "softmax_cross_entropy_loss/value"
  attr {
    key: "DstT"
    value {
      type: DT_HALF
    }
  }
  attr {
    key: "SrcT"
    value {
      type: DT_FLOAT
    }
  }
  attr {
    key: "Truncate"
    value {
      b: false
    }
  }
  attr {
    key: "_output_shapes"
    value {
      list {
        shape {
        }
      }
    }
  }
}
node {
  name: "Equal"
  op: "Equal"
  input: "ArgMax"
  input: "IteratorGetNext:1"
  attr {
    key: "T"
    value {
      type: DT_INT64
    }
  }
  attr {
    key: "_output_shapes"
    value {
      list {
        shape {
          dim {
            size: -1
          }
        }
      }
    }
  }
}
node {
  name: "Cast_1"
  op: "Cast"
  input: "Equal"
  attr {
    key: "DstT"
    value {
      type: DT_FLOAT
    }
  }
  attr {
    key: "SrcT"
    value {
      type: DT_BOOL
    }
  }
  attr {
    key: "Truncate"
    value {
      b: false
    }
  }
  attr {
    key: "_output_shapes"
    value {
      list {
        shape {
          dim {
            size: -1
          }
        }
      }
    }
  }
}
node {
  name: "acc_op/total/Initializer/zeros"
  op: "Const"
  attr {
    key: "_class"
    value {
      list {
        s: "loc:@acc_op/total"
      }
    }
  }
  attr {
    key: "_output_shapes"
    value {
      list {
        shape {
        }
      }
    }
  }
  attr {
    key: "dtype"
    value {
      type: DT_FLOAT
    }
  }
  attr {
    key: "value"
    value {
      tensor {
        dtype: DT_FLOAT
        tensor_shape {
        }
        float_val: 0.0
      }
    }
  }
}
node {
  name: "acc_op/total"
  op: "VariableV2"
  attr {
    key: "_class"
    value {
      list {
        s: "loc:@acc_op/total"
      }
    }
  }
  attr {
    key: "_output_shapes"
    value {
      list {
        shape {
        }
      }
    }
  }
  attr {
    key: "container"
    value {
      s: ""
    }
  }
  attr {
    key: "dtype"
    value {
      type: DT_FLOAT
    }
  }
  attr {
    key: "shape"
    value {
      shape {
      }
    }
  }
  attr {
    key: "shared_name"
    value {
      s: ""
    }
  }
}
node {
  name: "acc_op/total/Assign"
  op: "Assign"
  input: "acc_op/total"
  input: "acc_op/total/Initializer/zeros"
  attr {
    key: "T"
    value {
      type: DT_FLOAT
    }
  }
  attr {
    key: "_class"
    value {
      list {
        s: "loc:@acc_op/total"
      }
    }
  }
  attr {
    key: "_output_shapes"
    value {
      list {
        shape {
        }
      }
    }
  }
  attr {
    key: "use_locking"
    value {
      b: true
    }
  }
  attr {
    key: "validate_shape"
    value {
      b: true
    }
  }
}
node {
  name: "acc_op/total/read"
  op: "Identity"
  input: "acc_op/total"
  attr {
    key: "T"
    value {
      type: DT_FLOAT
    }
  }
  attr {
    key: "_class"
    value {
      list {
        s: "loc:@acc_op/total"
      }
    }
  }
  attr {
    key: "_output_shapes"
    value {
      list {
        shape {
        }
      }
    }
  }
}
node {
  name: "acc_op/count/Initializer/zeros"
  op: "Const"
  attr {
    key: "_class"
    value {
      list {
        s: "loc:@acc_op/count"
      }
    }
  }
  attr {
    key: "_output_shapes"
    value {
      list {
        shape {
        }
      }
    }
  }
  attr {
    key: "dtype"
    value {
      type: DT_FLOAT
    }
  }
  attr {
    key: "value"
    value {
      tensor {
        dtype: DT_FLOAT
        tensor_shape {
        }
        float_val: 0.0
      }
    }
  }
}
node {
  name: "acc_op/count"
  op: "VariableV2"
  attr {
    key: "_class"
    value {
      list {
        s: "loc:@acc_op/count"
      }
    }
  }
  attr {
    key: "_output_shapes"
    value {
      list {
        shape {
        }
      }
    }
  }
  attr {
    key: "container"
    value {
      s: ""
    }
  }
  attr {
    key: "dtype"
    value {
      type: DT_FLOAT
    }
  }
  attr {
    key: "shape"
    value {
      shape {
      }
    }
  }
  attr {
    key: "shared_name"
    value {
      s: ""
    }
  }
}
node {
  name: "acc_op/count/Assign"
  op: "Assign"
  input: "acc_op/count"
  input: "acc_op/count/Initializer/zeros"
  attr {
    key: "T"
    value {
      type: DT_FLOAT
    }
  }
  attr {
    key: "_class"
    value {
      list {
        s: "loc:@acc_op/count"
      }
    }
  }
  attr {
    key: "_output_shapes"
    value {
      list {
        shape {
        }
      }
    }
  }
  attr {
    key: "use_locking"
    value {
      b: true
    }
  }
  attr {
    key: "validate_shape"
    value {
      b: true
    }
  }
}
node {
  name: "acc_op/count/read"
  op: "Identity"
  input: "acc_op/count"
  attr {
    key: "T"
    value {
      type: DT_FLOAT
    }
  }
  attr {
    key: "_class"
    value {
      list {
        s: "loc:@acc_op/count"
      }
    }
  }
  attr {
    key: "_output_shapes"
    value {
      list {
        shape {
        }
      }
    }
  }
}
node {
  name: "acc_op/Size"
  op: "Size"
  input: "Cast_1"
  attr {
    key: "T"
    value {
      type: DT_FLOAT
    }
  }
  attr {
    key: "_output_shapes"
    value {
      list {
        shape {
        }
      }
    }
  }
  attr {
    key: "out_type"
    value {
      type: DT_INT32
    }
  }
}
node {
  name: "acc_op/Cast"
  op: "Cast"
  input: "acc_op/Size"
  attr {
    key: "DstT"
    value {
      type: DT_FLOAT
    }
  }
  attr {
    key: "SrcT"
    value {
      type: DT_INT32
    }
  }
  attr {
    key: "Truncate"
    value {
      b: false
    }
  }
  attr {
    key: "_output_shapes"
    value {
      list {
        shape {
        }
      }
    }
  }
}
node {
  name: "acc_op/Const"
  op: "Const"
  attr {
    key: "_output_shapes"
    value {
      list {
        shape {
          dim {
            size: 1
          }
        }
      }
    }
  }
  attr {
    key: "dtype"
    value {
      type: DT_INT32
    }
  }
  attr {
    key: "value"
    value {
      tensor {
        dtype: DT_INT32
        tensor_shape {
          dim {
            size: 1
          }
        }
        int_val: 0
      }
    }
  }
}
node {
  name: "acc_op/Sum"
  op: "Sum"
  input: "Cast_1"
  input: "acc_op/Const"
  attr {
    key: "T"
    value {
      type: DT_FLOAT
    }
  }
  attr {
    key: "Tidx"
    value {
      type: DT_INT32
    }
  }
  attr {
    key: "_output_shapes"
    value {
      list {
        shape {
        }
      }
    }
  }
  attr {
    key: "keep_dims"
    value {
      b: false
    }
  }
}
node {
  name: "acc_op/AssignAdd"
  op: "AssignAdd"
  input: "acc_op/total"
  input: "acc_op/Sum"
  attr {
    key: "T"
    value {
      type: DT_FLOAT
    }
  }
  attr {
    key: "_class"
    value {
      list {
        s: "loc:@acc_op/total"
      }
    }
  }
  attr {
    key: "_output_shapes"
    value {
      list {
        shape {
        }
      }
    }
  }
  attr {
    key: "use_locking"
    value {
      b: false
    }
  }
}
node {
  name: "acc_op/AssignAdd_1"
  op: "AssignAdd"
  input: "acc_op/count"
  input: "acc_op/Cast"
  input: "^Cast_1"
  attr {
    key: "T"
    value {
      type: DT_FLOAT
    }
  }
  attr {
    key: "_class"
    value {
      list {
        s: "loc:@acc_op/count"
      }
    }
  }
  attr {
    key: "_output_shapes"
    value {
      list {
        shape {
        }
      }
    }
  }
  attr {
    key: "use_locking"
    value {
      b: false
    }
  }
}
node {
  name: "acc_op/Maximum/y"
  op: "Const"
  attr {
    key: "_output_shapes"
    value {
      list {
        shape {
        }
      }
    }
  }
  attr {
    key: "dtype"
    value {
      type: DT_FLOAT
    }
  }
  attr {
    key: "value"
    value {
      tensor {
        dtype: DT_FLOAT
        tensor_shape {
        }
        float_val: 0.0
      }
    }
  }
}
node {
  name: "acc_op/Maximum"
  op: "Maximum"
  input: "acc_op/count/read"
  input: "acc_op/Maximum/y"
  attr {
    key: "T"
    value {
      type: DT_FLOAT
    }
  }
  attr {
    key: "_output_shapes"
    value {
      list {
        shape {
        }
      }
    }
  }
}
node {
  name: "acc_op/value"
  op: "DivNoNan"
  input: "acc_op/total/read"
  input: "acc_op/Maximum"
  attr {
    key: "T"
    value {
      type: DT_FLOAT
    }
  }
  attr {
    key: "_output_shapes"
    value {
      list {
        shape {
        }
      }
    }
  }
}
node {
  name: "acc_op/Maximum_1/y"
  op: "Const"
  attr {
    key: "_output_shapes"
    value {
      list {
        shape {
        }
      }
    }
  }
  attr {
    key: "dtype"
    value {
      type: DT_FLOAT
    }
  }
  attr {
    key: "value"
    value {
      tensor {
        dtype: DT_FLOAT
        tensor_shape {
        }
        float_val: 0.0
      }
    }
  }
}
node {
  name: "acc_op/Maximum_1"
  op: "Maximum"
  input: "acc_op/AssignAdd_1"
  input: "acc_op/Maximum_1/y"
  attr {
    key: "T"
    value {
      type: DT_FLOAT
    }
  }
  attr {
    key: "_output_shapes"
    value {
      list {
        shape {
        }
      }
    }
  }
}
node {
  name: "acc_op/update_op"
  op: "DivNoNan"
  input: "acc_op/AssignAdd"
  input: "acc_op/Maximum_1"
  attr {
    key: "T"
    value {
      type: DT_FLOAT
    }
  }
  attr {
    key: "_output_shapes"
    value {
      list {
        shape {
        }
      }
    }
  }
}
node {
  name: "accuracy/tags"
  op: "Const"
  attr {
    key: "_output_shapes"
    value {
      list {
        shape {
        }
      }
    }
  }
  attr {
    key: "dtype"
    value {
      type: DT_STRING
    }
  }
  attr {
    key: "value"
    value {
      tensor {
        dtype: DT_STRING
        tensor_shape {
        }
        string_val: "accuracy"
      }
    }
  }
}
node {
  name: "accuracy"
  op: "ScalarSummary"
  input: "accuracy/tags"
  input: "acc_op/update_op"
  attr {
    key: "T"
    value {
      type: DT_FLOAT
    }
  }
  attr {
    key: "_output_shapes"
    value {
      list {
        shape {
        }
      }
    }
  }
}
node {
  name: "gradients/Shape"
  op: "Const"
  attr {
    key: "_output_shapes"
    value {
      list {
        shape {
          dim {
          }
        }
      }
    }
  }
  attr {
    key: "dtype"
    value {
      type: DT_INT32
    }
  }
  attr {
    key: "value"
    value {
      tensor {
        dtype: DT_INT32
        tensor_shape {
          dim {
          }
        }
      }
    }
  }
}
node {
  name: "gradients/grad_ys_0"
  op: "Const"
  attr {
    key: "_output_shapes"
    value {
      list {
        shape {
        }
      }
    }
  }
  attr {
    key: "dtype"
    value {
      type: DT_HALF
    }
  }
  attr {
    key: "value"
    value {
      tensor {
        dtype: DT_HALF
        tensor_shape {
        }
        half_val: 15360
      }
    }
  }
}
node {
  name: "gradients/Fill"
  op: "Fill"
  input: "gradients/Shape"
  input: "gradients/grad_ys_0"
  attr {
    key: "T"
    value {
      type: DT_HALF
    }
  }
  attr {
    key: "_output_shapes"
    value {
      list {
        shape {
        }
      }
    }
  }
  attr {
    key: "index_type"
    value {
      type: DT_INT32
    }
  }
}
node {
  name: "gradients/softmax_cross_entropy_loss/Cast_3_grad/Cast"
  op: "Cast"
  input: "gradients/Fill"
  attr {
    key: "DstT"
    value {
      type: DT_FLOAT
    }
  }
  attr {
    key: "SrcT"
    value {
      type: DT_HALF
    }
  }
  attr {
    key: "Truncate"
    value {
      b: false
    }
  }
  attr {
    key: "_output_shapes"
    value {
      list {
        shape {
        }
      }
    }
  }
}
node {
  name: "gradients/softmax_cross_entropy_loss/value_grad/Shape"
  op: "Const"
  attr {
    key: "_output_shapes"
    value {
      list {
        shape {
          dim {
          }
        }
      }
    }
  }
  attr {
    key: "dtype"
    value {
      type: DT_INT32
    }
  }
  attr {
    key: "value"
    value {
      tensor {
        dtype: DT_INT32
        tensor_shape {
          dim {
          }
        }
      }
    }
  }
}
node {
  name: "gradients/softmax_cross_entropy_loss/value_grad/Shape_1"
  op: "Const"
  attr {
    key: "_output_shapes"
    value {
      list {
        shape {
          dim {
          }
        }
      }
    }
  }
  attr {
    key: "dtype"
    value {
      type: DT_INT32
    }
  }
  attr {
    key: "value"
    value {
      tensor {
        dtype: DT_INT32
        tensor_shape {
          dim {
          }
        }
      }
    }
  }
}
node {
  name: "gradients/softmax_cross_entropy_loss/value_grad/BroadcastGradientArgs"
  op: "BroadcastGradientArgs"
  input: "gradients/softmax_cross_entropy_loss/value_grad/Shape"
  input: "gradients/softmax_cross_entropy_loss/value_grad/Shape_1"
  attr {
    key: "T"
    value {
      type: DT_INT32
    }
  }
  attr {
    key: "_output_shapes"
    value {
      list {
        shape {
          dim {
            size: -1
          }
        }
        shape {
          dim {
            size: -1
          }
        }
      }
    }
  }
}
node {
  name: "gradients/softmax_cross_entropy_loss/value_grad/div_no_nan"
  op: "DivNoNan"
  input: "gradients/softmax_cross_entropy_loss/Cast_3_grad/Cast"
  input: "softmax_cross_entropy_loss/num_present"
  attr {
    key: "T"
    value {
      type: DT_FLOAT
    }
  }
  attr {
    key: "_output_shapes"
    value {
      list {
        shape {
        }
      }
    }
  }
}
node {
  name: "gradients/softmax_cross_entropy_loss/value_grad/Sum"
  op: "Sum"
  input: "gradients/softmax_cross_entropy_loss/value_grad/div_no_nan"
  input: "gradients/softmax_cross_entropy_loss/value_grad/BroadcastGradientArgs"
  attr {
    key: "T"
    value {
      type: DT_FLOAT
    }
  }
  attr {
    key: "Tidx"
    value {
      type: DT_INT32
    }
  }
  attr {
    key: "_output_shapes"
    value {
      list {
        shape {
        }
      }
    }
  }
  attr {
    key: "keep_dims"
    value {
      b: false
    }
  }
}
node {
  name: "gradients/softmax_cross_entropy_loss/value_grad/Reshape"
  op: "Reshape"
  input: "gradients/softmax_cross_entropy_loss/value_grad/Sum"
  input: "gradients/softmax_cross_entropy_loss/value_grad/Shape"
  attr {
    key: "T"
    value {
      type: DT_FLOAT
    }
  }
  attr {
    key: "Tshape"
    value {
      type: DT_INT32
    }
  }
  attr {
    key: "_output_shapes"
    value {
      list {
        shape {
        }
      }
    }
  }
}
node {
  name: "gradients/softmax_cross_entropy_loss/value_grad/Neg"
  op: "Neg"
  input: "softmax_cross_entropy_loss/Sum_1"
  attr {
    key: "T"
    value {
      type: DT_FLOAT
    }
  }
  attr {
    key: "_output_shapes"
    value {
      list {
        shape {
        }
      }
    }
  }
}
node {
  name: "gradients/softmax_cross_entropy_loss/value_grad/div_no_nan_1"
  op: "DivNoNan"
  input: "gradients/softmax_cross_entropy_loss/value_grad/Neg"
  input: "softmax_cross_entropy_loss/num_present"
  attr {
    key: "T"
    value {
      type: DT_FLOAT
    }
  }
  attr {
    key: "_output_shapes"
    value {
      list {
        shape {
        }
      }
    }
  }
}
node {
  name: "gradients/softmax_cross_entropy_loss/value_grad/div_no_nan_2"
  op: "DivNoNan"
  input: "gradients/softmax_cross_entropy_loss/value_grad/div_no_nan_1"
  input: "softmax_cross_entropy_loss/num_present"
  attr {
    key: "T"
    value {
      type: DT_FLOAT
    }
  }
  attr {
    key: "_output_shapes"
    value {
      list {
        shape {
        }
      }
    }
  }
}
node {
  name: "gradients/softmax_cross_entropy_loss/value_grad/mul"
  op: "Mul"
  input: "gradients/softmax_cross_entropy_loss/Cast_3_grad/Cast"
  input: "gradients/softmax_cross_entropy_loss/value_grad/div_no_nan_2"
  attr {
    key: "T"
    value {
      type: DT_FLOAT
    }
  }
  attr {
    key: "_output_shapes"
    value {
      list {
        shape {
        }
      }
    }
  }
}
node {
  name: "gradients/softmax_cross_entropy_loss/value_grad/Sum_1"
  op: "Sum"
  input: "gradients/softmax_cross_entropy_loss/value_grad/mul"
  input: "gradients/softmax_cross_entropy_loss/value_grad/BroadcastGradientArgs:1"
  attr {
    key: "T"
    value {
      type: DT_FLOAT
    }
  }
  attr {
    key: "Tidx"
    value {
      type: DT_INT32
    }
  }
  attr {
    key: "_output_shapes"
    value {
      list {
        shape {
        }
      }
    }
  }
  attr {
    key: "keep_dims"
    value {
      b: false
    }
  }
}
node {
  name: "gradients/softmax_cross_entropy_loss/value_grad/Reshape_1"
  op: "Reshape"
  input: "gradients/softmax_cross_entropy_loss/value_grad/Sum_1"
  input: "gradients/softmax_cross_entropy_loss/value_grad/Shape_1"
  attr {
    key: "T"
    value {
      type: DT_FLOAT
    }
  }
  attr {
    key: "Tshape"
    value {
      type: DT_INT32
    }
  }
  attr {
    key: "_output_shapes"
    value {
      list {
        shape {
        }
      }
    }
  }
}
node {
  name: "gradients/softmax_cross_entropy_loss/value_grad/tuple/group_deps"
  op: "NoOp"
  input: "^gradients/softmax_cross_entropy_loss/value_grad/Reshape"
  input: "^gradients/softmax_cross_entropy_loss/value_grad/Reshape_1"
}
node {
  name: "gradients/softmax_cross_entropy_loss/value_grad/tuple/control_dependency"
  op: "Identity"
  input: "gradients/softmax_cross_entropy_loss/value_grad/Reshape"
  input: "^gradients/softmax_cross_entropy_loss/value_grad/tuple/group_deps"
  attr {
    key: "T"
    value {
      type: DT_FLOAT
    }
  }
  attr {
    key: "_class"
    value {
      list {
        s: "loc:@gradients/softmax_cross_entropy_loss/value_grad/Reshape"
      }
    }
  }
  attr {
    key: "_output_shapes"
    value {
      list {
        shape {
        }
      }
    }
  }
}
node {
  name: "gradients/softmax_cross_entropy_loss/value_grad/tuple/control_dependency_1"
  op: "Identity"
  input: "gradients/softmax_cross_entropy_loss/value_grad/Reshape_1"
  input: "^gradients/softmax_cross_entropy_loss/value_grad/tuple/group_deps"
  attr {
    key: "T"
    value {
      type: DT_FLOAT
    }
  }
  attr {
    key: "_class"
    value {
      list {
        s: "loc:@gradients/softmax_cross_entropy_loss/value_grad/Reshape_1"
      }
    }
  }
  attr {
    key: "_output_shapes"
    value {
      list {
        shape {
        }
      }
    }
  }
}
node {
  name: "gradients/softmax_cross_entropy_loss/Sum_1_grad/Reshape/shape"
  op: "Const"
  attr {
    key: "_output_shapes"
    value {
      list {
        shape {
          dim {
          }
        }
      }
    }
  }
  attr {
    key: "dtype"
    value {
      type: DT_INT32
    }
  }
  attr {
    key: "value"
    value {
      tensor {
        dtype: DT_INT32
        tensor_shape {
          dim {
          }
        }
      }
    }
  }
}
node {
  name: "gradients/softmax_cross_entropy_loss/Sum_1_grad/Reshape"
  op: "Reshape"
  input: "gradients/softmax_cross_entropy_loss/value_grad/tuple/control_dependency"
  input: "gradients/softmax_cross_entropy_loss/Sum_1_grad/Reshape/shape"
  attr {
    key: "T"
    value {
      type: DT_FLOAT
    }
  }
  attr {
    key: "Tshape"
    value {
      type: DT_INT32
    }
  }
  attr {
    key: "_output_shapes"
    value {
      list {
        shape {
        }
      }
    }
  }
}
node {
  name: "gradients/softmax_cross_entropy_loss/Sum_1_grad/Const"
  op: "Const"
  attr {
    key: "_output_shapes"
    value {
      list {
        shape {
          dim {
          }
        }
      }
    }
  }
  attr {
    key: "dtype"
    value {
      type: DT_INT32
    }
  }
  attr {
    key: "value"
    value {
      tensor {
        dtype: DT_INT32
        tensor_shape {
          dim {
          }
        }
      }
    }
  }
}
node {
  name: "gradients/softmax_cross_entropy_loss/Sum_1_grad/Tile"
  op: "Tile"
  input: "gradients/softmax_cross_entropy_loss/Sum_1_grad/Reshape"
  input: "gradients/softmax_cross_entropy_loss/Sum_1_grad/Const"
  attr {
    key: "T"
    value {
      type: DT_FLOAT
    }
  }
  attr {
    key: "Tmultiples"
    value {
      type: DT_INT32
    }
  }
  attr {
    key: "_output_shapes"
    value {
      list {
        shape {
        }
      }
    }
  }
}
node {
  name: "gradients/softmax_cross_entropy_loss/Sum_grad/Reshape/shape"
  op: "Const"
  attr {
    key: "_output_shapes"
    value {
      list {
        shape {
          dim {
            size: 1
          }
        }
      }
    }
  }
  attr {
    key: "dtype"
    value {
      type: DT_INT32
    }
  }
  attr {
    key: "value"
    value {
      tensor {
        dtype: DT_INT32
        tensor_shape {
          dim {
            size: 1
          }
        }
        int_val: 1
      }
    }
  }
}
node {
  name: "gradients/softmax_cross_entropy_loss/Sum_grad/Reshape"
  op: "Reshape"
  input: "gradients/softmax_cross_entropy_loss/Sum_1_grad/Tile"
  input: "gradients/softmax_cross_entropy_loss/Sum_grad/Reshape/shape"
  attr {
    key: "T"
    value {
      type: DT_FLOAT
    }
  }
  attr {
    key: "Tshape"
    value {
      type: DT_INT32
    }
  }
  attr {
    key: "_output_shapes"
    value {
      list {
        shape {
          dim {
            size: 1
          }
        }
      }
    }
  }
}
node {
  name: "gradients/softmax_cross_entropy_loss/Sum_grad/Shape"
  op: "Shape"
  input: "softmax_cross_entropy_loss/Mul"
  attr {
    key: "T"
    value {
      type: DT_FLOAT
    }
  }
  attr {
    key: "_output_shapes"
    value {
      list {
        shape {
          dim {
            size: 1
          }
        }
      }
    }
  }
  attr {
    key: "out_type"
    value {
      type: DT_INT32
    }
  }
}
node {
  name: "gradients/softmax_cross_entropy_loss/Sum_grad/Tile"
  op: "Tile"
  input: "gradients/softmax_cross_entropy_loss/Sum_grad/Reshape"
  input: "gradients/softmax_cross_entropy_loss/Sum_grad/Shape"
  attr {
    key: "T"
    value {
      type: DT_FLOAT
    }
  }
  attr {
    key: "Tmultiples"
    value {
      type: DT_INT32
    }
  }
  attr {
    key: "_output_shapes"
    value {
      list {
        shape {
          dim {
            size: -1
          }
        }
      }
    }
  }
}
node {
  name: "gradients/softmax_cross_entropy_loss/Mul_grad/Shape"
  op: "Shape"
  input: "softmax_cross_entropy_loss/Cast_1"
  attr {
    key: "T"
    value {
      type: DT_FLOAT
    }
  }
  attr {
    key: "_output_shapes"
    value {
      list {
        shape {
          dim {
            size: 1
          }
        }
      }
    }
  }
  attr {
    key: "out_type"
    value {
      type: DT_INT32
    }
  }
}
node {
  name: "gradients/softmax_cross_entropy_loss/Mul_grad/Shape_1"
  op: "Const"
  attr {
    key: "_output_shapes"
    value {
      list {
        shape {
          dim {
          }
        }
      }
    }
  }
  attr {
    key: "dtype"
    value {
      type: DT_INT32
    }
  }
  attr {
    key: "value"
    value {
      tensor {
        dtype: DT_INT32
        tensor_shape {
          dim {
          }
        }
      }
    }
  }
}
node {
  name: "gradients/softmax_cross_entropy_loss/Mul_grad/BroadcastGradientArgs"
  op: "BroadcastGradientArgs"
  input: "gradients/softmax_cross_entropy_loss/Mul_grad/Shape"
  input: "gradients/softmax_cross_entropy_loss/Mul_grad/Shape_1"
  attr {
    key: "T"
    value {
      type: DT_INT32
    }
  }
  attr {
    key: "_output_shapes"
    value {
      list {
        shape {
          dim {
            size: -1
          }
        }
        shape {
          dim {
            size: -1
          }
        }
      }
    }
  }
}
node {
  name: "gradients/softmax_cross_entropy_loss/Mul_grad/Mul"
  op: "Mul"
  input: "gradients/softmax_cross_entropy_loss/Sum_grad/Tile"
  input: "softmax_cross_entropy_loss/Cast_2/x"
  attr {
    key: "T"
    value {
      type: DT_FLOAT
    }
  }
  attr {
    key: "_output_shapes"
    value {
      list {
        shape {
          dim {
            size: -1
          }
        }
      }
    }
  }
}
node {
  name: "gradients/softmax_cross_entropy_loss/Mul_grad/Sum"
  op: "Sum"
  input: "gradients/softmax_cross_entropy_loss/Mul_grad/Mul"
  input: "gradients/softmax_cross_entropy_loss/Mul_grad/BroadcastGradientArgs"
  attr {
    key: "T"
    value {
      type: DT_FLOAT
    }
  }
  attr {
    key: "Tidx"
    value {
      type: DT_INT32
    }
  }
  attr {
    key: "_output_shapes"
    value {
      list {
        shape {
          unknown_rank: true
        }
      }
    }
  }
  attr {
    key: "keep_dims"
    value {
      b: false
    }
  }
}
node {
  name: "gradients/softmax_cross_entropy_loss/Mul_grad/Reshape"
  op: "Reshape"
  input: "gradients/softmax_cross_entropy_loss/Mul_grad/Sum"
  input: "gradients/softmax_cross_entropy_loss/Mul_grad/Shape"
  attr {
    key: "T"
    value {
      type: DT_FLOAT
    }
  }
  attr {
    key: "Tshape"
    value {
      type: DT_INT32
    }
  }
  attr {
    key: "_output_shapes"
    value {
      list {
        shape {
          dim {
            size: -1
          }
        }
      }
    }
  }
}
node {
  name: "gradients/softmax_cross_entropy_loss/Mul_grad/Mul_1"
  op: "Mul"
  input: "softmax_cross_entropy_loss/Cast_1"
  input: "gradients/softmax_cross_entropy_loss/Sum_grad/Tile"
  attr {
    key: "T"
    value {
      type: DT_FLOAT
    }
  }
  attr {
    key: "_output_shapes"
    value {
      list {
        shape {
          dim {
            size: -1
          }
        }
      }
    }
  }
}
node {
  name: "gradients/softmax_cross_entropy_loss/Mul_grad/Sum_1"
  op: "Sum"
  input: "gradients/softmax_cross_entropy_loss/Mul_grad/Mul_1"
  input: "gradients/softmax_cross_entropy_loss/Mul_grad/BroadcastGradientArgs:1"
  attr {
    key: "T"
    value {
      type: DT_FLOAT
    }
  }
  attr {
    key: "Tidx"
    value {
      type: DT_INT32
    }
  }
  attr {
    key: "_output_shapes"
    value {
      list {
        shape {
          unknown_rank: true
        }
      }
    }
  }
  attr {
    key: "keep_dims"
    value {
      b: false
    }
  }
}
node {
  name: "gradients/softmax_cross_entropy_loss/Mul_grad/Reshape_1"
  op: "Reshape"
  input: "gradients/softmax_cross_entropy_loss/Mul_grad/Sum_1"
  input: "gradients/softmax_cross_entropy_loss/Mul_grad/Shape_1"
  attr {
    key: "T"
    value {
      type: DT_FLOAT
    }
  }
  attr {
    key: "Tshape"
    value {
      type: DT_INT32
    }
  }
  attr {
    key: "_output_shapes"
    value {
      list {
        shape {
        }
      }
    }
  }
}
node {
  name: "gradients/softmax_cross_entropy_loss/Mul_grad/tuple/group_deps"
  op: "NoOp"
  input: "^gradients/softmax_cross_entropy_loss/Mul_grad/Reshape"
  input: "^gradients/softmax_cross_entropy_loss/Mul_grad/Reshape_1"
}
node {
  name: "gradients/softmax_cross_entropy_loss/Mul_grad/tuple/control_dependency"
  op: "Identity"
  input: "gradients/softmax_cross_entropy_loss/Mul_grad/Reshape"
  input: "^gradients/softmax_cross_entropy_loss/Mul_grad/tuple/group_deps"
  attr {
    key: "T"
    value {
      type: DT_FLOAT
    }
  }
  attr {
    key: "_class"
    value {
      list {
        s: "loc:@gradients/softmax_cross_entropy_loss/Mul_grad/Reshape"
      }
    }
  }
  attr {
    key: "_output_shapes"
    value {
      list {
        shape {
          dim {
            size: -1
          }
        }
      }
    }
  }
}
node {
  name: "gradients/softmax_cross_entropy_loss/Mul_grad/tuple/control_dependency_1"
  op: "Identity"
  input: "gradients/softmax_cross_entropy_loss/Mul_grad/Reshape_1"
  input: "^gradients/softmax_cross_entropy_loss/Mul_grad/tuple/group_deps"
  attr {
    key: "T"
    value {
      type: DT_FLOAT
    }
  }
  attr {
    key: "_class"
    value {
      list {
        s: "loc:@gradients/softmax_cross_entropy_loss/Mul_grad/Reshape_1"
      }
    }
  }
  attr {
    key: "_output_shapes"
    value {
      list {
        shape {
        }
      }
    }
  }
}
node {
  name: "gradients/softmax_cross_entropy_loss/Cast_1_grad/Cast"
  op: "Cast"
  input: "gradients/softmax_cross_entropy_loss/Mul_grad/tuple/control_dependency"
  attr {
    key: "DstT"
    value {
      type: DT_HALF
    }
  }
  attr {
    key: "SrcT"
    value {
      type: DT_FLOAT
    }
  }
  attr {
    key: "Truncate"
    value {
      b: false
    }
  }
  attr {
    key: "_output_shapes"
    value {
      list {
        shape {
          dim {
            size: -1
          }
        }
      }
    }
  }
}
node {
  name: "gradients/softmax_cross_entropy_loss/xentropy/Cast_2_grad/Cast"
  op: "Cast"
  input: "gradients/softmax_cross_entropy_loss/Cast_1_grad/Cast"
  attr {
    key: "DstT"
    value {
      type: DT_FLOAT
    }
  }
  attr {
    key: "SrcT"
    value {
      type: DT_HALF
    }
  }
  attr {
    key: "Truncate"
    value {
      b: false
    }
  }
  attr {
    key: "_output_shapes"
    value {
      list {
        shape {
          dim {
            size: -1
          }
        }
      }
    }
  }
}
node {
  name: "gradients/softmax_cross_entropy_loss/xentropy/Reshape_2_grad/Shape"
  op: "Shape"
  input: "softmax_cross_entropy_loss/xentropy"
  attr {
    key: "T"
    value {
      type: DT_FLOAT
    }
  }
  attr {
    key: "_output_shapes"
    value {
      list {
        shape {
          dim {
            size: 1
          }
        }
      }
    }
  }
  attr {
    key: "out_type"
    value {
      type: DT_INT32
    }
  }
}
node {
  name: "gradients/softmax_cross_entropy_loss/xentropy/Reshape_2_grad/Reshape"
  op: "Reshape"
  input: "gradients/softmax_cross_entropy_loss/xentropy/Cast_2_grad/Cast"
  input: "gradients/softmax_cross_entropy_loss/xentropy/Reshape_2_grad/Shape"
  attr {
    key: "T"
    value {
      type: DT_FLOAT
    }
  }
  attr {
    key: "Tshape"
    value {
      type: DT_INT32
    }
  }
  attr {
    key: "_output_shapes"
    value {
      list {
        shape {
          dim {
            size: -1
          }
        }
      }
    }
  }
}
node {
  name: "gradients/zeros_like"
  op: "ZerosLike"
  input: "softmax_cross_entropy_loss/xentropy:1"
  attr {
    key: "T"
    value {
      type: DT_FLOAT
    }
  }
  attr {
    key: "_output_shapes"
    value {
      list {
        shape {
          dim {
            size: -1
          }
          dim {
            size: -1
          }
        }
      }
    }
  }
}
node {
  name: "gradients/softmax_cross_entropy_loss/xentropy_grad/ExpandDims/dim"
  op: "Const"
  attr {
    key: "_output_shapes"
    value {
      list {
        shape {
        }
      }
    }
  }
  attr {
    key: "dtype"
    value {
      type: DT_INT32
    }
  }
  attr {
    key: "value"
    value {
      tensor {
        dtype: DT_INT32
        tensor_shape {
        }
        int_val: -1
      }
    }
  }
}
node {
  name: "gradients/softmax_cross_entropy_loss/xentropy_grad/ExpandDims"
  op: "ExpandDims"
  input: "gradients/softmax_cross_entropy_loss/xentropy/Reshape_2_grad/Reshape"
  input: "gradients/softmax_cross_entropy_loss/xentropy_grad/ExpandDims/dim"
  attr {
    key: "T"
    value {
      type: DT_FLOAT
    }
  }
  attr {
    key: "Tdim"
    value {
      type: DT_INT32
    }
  }
  attr {
    key: "_output_shapes"
    value {
      list {
        shape {
          dim {
            size: -1
          }
          dim {
            size: 1
          }
        }
      }
    }
  }
}
node {
  name: "gradients/softmax_cross_entropy_loss/xentropy_grad/mul"
  op: "Mul"
  input: "gradients/softmax_cross_entropy_loss/xentropy_grad/ExpandDims"
  input: "softmax_cross_entropy_loss/xentropy:1"
  attr {
    key: "T"
    value {
      type: DT_FLOAT
    }
  }
  attr {
    key: "_output_shapes"
    value {
      list {
        shape {
          dim {
            size: -1
          }
          dim {
            size: -1
          }
        }
      }
    }
  }
}
node {
  name: "gradients/softmax_cross_entropy_loss/xentropy_grad/LogSoftmax"
  op: "LogSoftmax"
  input: "softmax_cross_entropy_loss/xentropy/Reshape"
  attr {
    key: "T"
    value {
      type: DT_FLOAT
    }
  }
  attr {
    key: "_output_shapes"
    value {
      list {
        shape {
          dim {
            size: -1
          }
          dim {
            size: -1
          }
        }
      }
    }
  }
}
node {
  name: "gradients/softmax_cross_entropy_loss/xentropy_grad/Neg"
  op: "Neg"
  input: "gradients/softmax_cross_entropy_loss/xentropy_grad/LogSoftmax"
  attr {
    key: "T"
    value {
      type: DT_FLOAT
    }
  }
  attr {
    key: "_output_shapes"
    value {
      list {
        shape {
          dim {
            size: -1
          }
          dim {
            size: -1
          }
        }
      }
    }
  }
}
node {
  name: "gradients/softmax_cross_entropy_loss/xentropy_grad/ExpandDims_1/dim"
  op: "Const"
  attr {
    key: "_output_shapes"
    value {
      list {
        shape {
        }
      }
    }
  }
  attr {
    key: "dtype"
    value {
      type: DT_INT32
    }
  }
  attr {
    key: "value"
    value {
      tensor {
        dtype: DT_INT32
        tensor_shape {
        }
        int_val: -1
      }
    }
  }
}
node {
  name: "gradients/softmax_cross_entropy_loss/xentropy_grad/ExpandDims_1"
  op: "ExpandDims"
  input: "gradients/softmax_cross_entropy_loss/xentropy/Reshape_2_grad/Reshape"
  input: "gradients/softmax_cross_entropy_loss/xentropy_grad/ExpandDims_1/dim"
  attr {
    key: "T"
    value {
      type: DT_FLOAT
    }
  }
  attr {
    key: "Tdim"
    value {
      type: DT_INT32
    }
  }
  attr {
    key: "_output_shapes"
    value {
      list {
        shape {
          dim {
            size: -1
          }
          dim {
            size: 1
          }
        }
      }
    }
  }
}
node {
  name: "gradients/softmax_cross_entropy_loss/xentropy_grad/mul_1"
  op: "Mul"
  input: "gradients/softmax_cross_entropy_loss/xentropy_grad/ExpandDims_1"
  input: "gradients/softmax_cross_entropy_loss/xentropy_grad/Neg"
  attr {
    key: "T"
    value {
      type: DT_FLOAT
    }
  }
  attr {
    key: "_output_shapes"
    value {
      list {
        shape {
          dim {
            size: -1
          }
          dim {
            size: -1
          }
        }
      }
    }
  }
}
node {
  name: "gradients/softmax_cross_entropy_loss/xentropy_grad/tuple/group_deps"
  op: "NoOp"
  input: "^gradients/softmax_cross_entropy_loss/xentropy_grad/mul"
  input: "^gradients/softmax_cross_entropy_loss/xentropy_grad/mul_1"
}
node {
  name: "gradients/softmax_cross_entropy_loss/xentropy_grad/tuple/control_dependency"
  op: "Identity"
  input: "gradients/softmax_cross_entropy_loss/xentropy_grad/mul"
  input: "^gradients/softmax_cross_entropy_loss/xentropy_grad/tuple/group_deps"
  attr {
    key: "T"
    value {
      type: DT_FLOAT
    }
  }
  attr {
    key: "_class"
    value {
      list {
        s: "loc:@gradients/softmax_cross_entropy_loss/xentropy_grad/mul"
      }
    }
  }
  attr {
    key: "_output_shapes"
    value {
      list {
        shape {
          dim {
            size: -1
          }
          dim {
            size: -1
          }
        }
      }
    }
  }
}
node {
  name: "gradients/softmax_cross_entropy_loss/xentropy_grad/tuple/control_dependency_1"
  op: "Identity"
  input: "gradients/softmax_cross_entropy_loss/xentropy_grad/mul_1"
  input: "^gradients/softmax_cross_entropy_loss/xentropy_grad/tuple/group_deps"
  attr {
    key: "T"
    value {
      type: DT_FLOAT
    }
  }
  attr {
    key: "_class"
    value {
      list {
        s: "loc:@gradients/softmax_cross_entropy_loss/xentropy_grad/mul_1"
      }
    }
  }
  attr {
    key: "_output_shapes"
    value {
      list {
        shape {
          dim {
            size: -1
          }
          dim {
            size: -1
          }
        }
      }
    }
  }
}
node {
  name: "gradients/softmax_cross_entropy_loss/xentropy/Reshape_grad/Shape"
  op: "Shape"
  input: "softmax_cross_entropy_loss/xentropy/Cast"
  attr {
    key: "T"
    value {
      type: DT_FLOAT
    }
  }
  attr {
    key: "_output_shapes"
    value {
      list {
        shape {
          dim {
            size: 2
          }
        }
      }
    }
  }
  attr {
    key: "out_type"
    value {
      type: DT_INT32
    }
  }
}
node {
  name: "gradients/softmax_cross_entropy_loss/xentropy/Reshape_grad/Reshape"
  op: "Reshape"
  input: "gradients/softmax_cross_entropy_loss/xentropy_grad/tuple/control_dependency"
  input: "gradients/softmax_cross_entropy_loss/xentropy/Reshape_grad/Shape"
  attr {
    key: "T"
    value {
      type: DT_FLOAT
    }
  }
  attr {
    key: "Tshape"
    value {
      type: DT_INT32
    }
  }
  attr {
    key: "_output_shapes"
    value {
      list {
        shape {
          dim {
            size: -1
          }
          dim {
            size: 30
          }
        }
      }
    }
  }
}
node {
  name: "gradients/softmax_cross_entropy_loss/xentropy/Cast_grad/Cast"
  op: "Cast"
  input: "gradients/softmax_cross_entropy_loss/xentropy/Reshape_grad/Reshape"
  attr {
    key: "DstT"
    value {
      type: DT_HALF
    }
  }
  attr {
    key: "SrcT"
    value {
      type: DT_FLOAT
    }
  }
  attr {
    key: "Truncate"
    value {
      b: false
    }
  }
  attr {
    key: "_output_shapes"
    value {
      list {
        shape {
          dim {
            size: -1
          }
          dim {
            size: 30
          }
        }
      }
    }
  }
}
node {
  name: "gradients/dense_1/Relu_grad/ReluGrad"
  op: "ReluGrad"
  input: "gradients/softmax_cross_entropy_loss/xentropy/Cast_grad/Cast"
  input: "dense_1/Relu"
  attr {
    key: "T"
    value {
      type: DT_HALF
    }
  }
  attr {
    key: "_output_shapes"
    value {
      list {
        shape {
          dim {
            size: -1
          }
          dim {
            size: 30
          }
        }
      }
    }
  }
}
node {
  name: "gradients/dense_1/BiasAdd_grad/BiasAddGrad"
  op: "BiasAddGrad"
  input: "gradients/dense_1/Relu_grad/ReluGrad"
  attr {
    key: "T"
    value {
      type: DT_HALF
    }
  }
  attr {
    key: "_output_shapes"
    value {
      list {
        shape {
          dim {
            size: 30
          }
        }
      }
    }
  }
  attr {
    key: "data_format"
    value {
      s: "NHWC"
    }
  }
}
node {
  name: "gradients/dense_1/BiasAdd_grad/tuple/group_deps"
  op: "NoOp"
  input: "^gradients/dense_1/BiasAdd_grad/BiasAddGrad"
  input: "^gradients/dense_1/Relu_grad/ReluGrad"
}
node {
  name: "gradients/dense_1/BiasAdd_grad/tuple/control_dependency"
  op: "Identity"
  input: "gradients/dense_1/Relu_grad/ReluGrad"
  input: "^gradients/dense_1/BiasAdd_grad/tuple/group_deps"
  attr {
    key: "T"
    value {
      type: DT_HALF
    }
  }
  attr {
    key: "_class"
    value {
      list {
        s: "loc:@gradients/dense_1/Relu_grad/ReluGrad"
      }
    }
  }
  attr {
    key: "_output_shapes"
    value {
      list {
        shape {
          dim {
            size: -1
          }
          dim {
            size: 30
          }
        }
      }
    }
  }
}
node {
  name: "gradients/dense_1/BiasAdd_grad/tuple/control_dependency_1"
  op: "Identity"
  input: "gradients/dense_1/BiasAdd_grad/BiasAddGrad"
  input: "^gradients/dense_1/BiasAdd_grad/tuple/group_deps"
  attr {
    key: "T"
    value {
      type: DT_HALF
    }
  }
  attr {
    key: "_class"
    value {
      list {
        s: "loc:@gradients/dense_1/BiasAdd_grad/BiasAddGrad"
      }
    }
  }
  attr {
    key: "_output_shapes"
    value {
      list {
        shape {
          dim {
            size: 30
          }
        }
      }
    }
  }
}
node {
  name: "gradients/dense_1/MatMul_grad/MatMul"
  op: "MatMul"
  input: "gradients/dense_1/BiasAdd_grad/tuple/control_dependency"
  input: "dense_1/kernel/read"
  attr {
    key: "T"
    value {
      type: DT_HALF
    }
  }
  attr {
    key: "_output_shapes"
    value {
      list {
        shape {
          dim {
            size: -1
          }
          dim {
            size: 1024
          }
        }
      }
    }
  }
  attr {
    key: "transpose_a"
    value {
      b: false
    }
  }
  attr {
    key: "transpose_b"
    value {
      b: true
    }
  }
}
node {
  name: "gradients/dense_1/MatMul_grad/MatMul_1"
  op: "MatMul"
  input: "dropout/dropout/mul_1"
  input: "gradients/dense_1/BiasAdd_grad/tuple/control_dependency"
  attr {
    key: "T"
    value {
      type: DT_HALF
    }
  }
  attr {
    key: "_output_shapes"
    value {
      list {
        shape {
          dim {
            size: 1024
          }
          dim {
            size: 30
          }
        }
      }
    }
  }
  attr {
    key: "transpose_a"
    value {
      b: true
    }
  }
  attr {
    key: "transpose_b"
    value {
      b: false
    }
  }
}
node {
  name: "gradients/dense_1/MatMul_grad/tuple/group_deps"
  op: "NoOp"
  input: "^gradients/dense_1/MatMul_grad/MatMul"
  input: "^gradients/dense_1/MatMul_grad/MatMul_1"
}
node {
  name: "gradients/dense_1/MatMul_grad/tuple/control_dependency"
  op: "Identity"
  input: "gradients/dense_1/MatMul_grad/MatMul"
  input: "^gradients/dense_1/MatMul_grad/tuple/group_deps"
  attr {
    key: "T"
    value {
      type: DT_HALF
    }
  }
  attr {
    key: "_class"
    value {
      list {
        s: "loc:@gradients/dense_1/MatMul_grad/MatMul"
      }
    }
  }
  attr {
    key: "_output_shapes"
    value {
      list {
        shape {
          dim {
            size: -1
          }
          dim {
            size: 1024
          }
        }
      }
    }
  }
}
node {
  name: "gradients/dense_1/MatMul_grad/tuple/control_dependency_1"
  op: "Identity"
  input: "gradients/dense_1/MatMul_grad/MatMul_1"
  input: "^gradients/dense_1/MatMul_grad/tuple/group_deps"
  attr {
    key: "T"
    value {
      type: DT_HALF
    }
  }
  attr {
    key: "_class"
    value {
      list {
        s: "loc:@gradients/dense_1/MatMul_grad/MatMul_1"
      }
    }
  }
  attr {
    key: "_output_shapes"
    value {
      list {
        shape {
          dim {
            size: 1024
          }
          dim {
            size: 30
          }
        }
      }
    }
  }
}
node {
  name: "gradients/dropout/dropout/mul_1_grad/Shape"
  op: "Shape"
  input: "dropout/dropout/mul"
  attr {
    key: "T"
    value {
      type: DT_HALF
    }
  }
  attr {
    key: "_output_shapes"
    value {
      list {
        shape {
          dim {
            size: 2
          }
        }
      }
    }
  }
  attr {
    key: "out_type"
    value {
      type: DT_INT32
    }
  }
}
node {
  name: "gradients/dropout/dropout/mul_1_grad/Shape_1"
  op: "Shape"
  input: "dropout/dropout/Cast"
  attr {
    key: "T"
    value {
      type: DT_HALF
    }
  }
  attr {
    key: "_output_shapes"
    value {
      list {
        shape {
          dim {
            size: 2
          }
        }
      }
    }
  }
  attr {
    key: "out_type"
    value {
      type: DT_INT32
    }
  }
}
node {
  name: "gradients/dropout/dropout/mul_1_grad/BroadcastGradientArgs"
  op: "BroadcastGradientArgs"
  input: "gradients/dropout/dropout/mul_1_grad/Shape"
  input: "gradients/dropout/dropout/mul_1_grad/Shape_1"
  attr {
    key: "T"
    value {
      type: DT_INT32
    }
  }
  attr {
    key: "_output_shapes"
    value {
      list {
        shape {
          dim {
            size: -1
          }
        }
        shape {
          dim {
            size: -1
          }
        }
      }
    }
  }
}
node {
  name: "gradients/dropout/dropout/mul_1_grad/Mul"
  op: "Mul"
  input: "gradients/dense_1/MatMul_grad/tuple/control_dependency"
  input: "dropout/dropout/Cast"
  attr {
    key: "T"
    value {
      type: DT_HALF
    }
  }
  attr {
    key: "_output_shapes"
    value {
      list {
        shape {
          dim {
            size: -1
          }
          dim {
            size: 1024
          }
        }
      }
    }
  }
}
node {
  name: "gradients/dropout/dropout/mul_1_grad/Sum"
  op: "Sum"
  input: "gradients/dropout/dropout/mul_1_grad/Mul"
  input: "gradients/dropout/dropout/mul_1_grad/BroadcastGradientArgs"
  attr {
    key: "T"
    value {
      type: DT_HALF
    }
  }
  attr {
    key: "Tidx"
    value {
      type: DT_INT32
    }
  }
  attr {
    key: "_output_shapes"
    value {
      list {
        shape {
          unknown_rank: true
        }
      }
    }
  }
  attr {
    key: "keep_dims"
    value {
      b: false
    }
  }
}
node {
  name: "gradients/dropout/dropout/mul_1_grad/Reshape"
  op: "Reshape"
  input: "gradients/dropout/dropout/mul_1_grad/Sum"
  input: "gradients/dropout/dropout/mul_1_grad/Shape"
  attr {
    key: "T"
    value {
      type: DT_HALF
    }
  }
  attr {
    key: "Tshape"
    value {
      type: DT_INT32
    }
  }
  attr {
    key: "_output_shapes"
    value {
      list {
        shape {
          dim {
            size: -1
          }
          dim {
            size: 1024
          }
        }
      }
    }
  }
}
node {
  name: "gradients/dropout/dropout/mul_1_grad/Mul_1"
  op: "Mul"
  input: "dropout/dropout/mul"
  input: "gradients/dense_1/MatMul_grad/tuple/control_dependency"
  attr {
    key: "T"
    value {
      type: DT_HALF
    }
  }
  attr {
    key: "_output_shapes"
    value {
      list {
        shape {
          dim {
            size: -1
          }
          dim {
            size: 1024
          }
        }
      }
    }
  }
}
node {
  name: "gradients/dropout/dropout/mul_1_grad/Sum_1"
  op: "Sum"
  input: "gradients/dropout/dropout/mul_1_grad/Mul_1"
  input: "gradients/dropout/dropout/mul_1_grad/BroadcastGradientArgs:1"
  attr {
    key: "T"
    value {
      type: DT_HALF
    }
  }
  attr {
    key: "Tidx"
    value {
      type: DT_INT32
    }
  }
  attr {
    key: "_output_shapes"
    value {
      list {
        shape {
          unknown_rank: true
        }
      }
    }
  }
  attr {
    key: "keep_dims"
    value {
      b: false
    }
  }
}
node {
  name: "gradients/dropout/dropout/mul_1_grad/Reshape_1"
  op: "Reshape"
  input: "gradients/dropout/dropout/mul_1_grad/Sum_1"
  input: "gradients/dropout/dropout/mul_1_grad/Shape_1"
  attr {
    key: "T"
    value {
      type: DT_HALF
    }
  }
  attr {
    key: "Tshape"
    value {
      type: DT_INT32
    }
  }
  attr {
    key: "_output_shapes"
    value {
      list {
        shape {
          dim {
            size: -1
          }
          dim {
            size: 1024
          }
        }
      }
    }
  }
}
node {
  name: "gradients/dropout/dropout/mul_1_grad/tuple/group_deps"
  op: "NoOp"
  input: "^gradients/dropout/dropout/mul_1_grad/Reshape"
  input: "^gradients/dropout/dropout/mul_1_grad/Reshape_1"
}
node {
  name: "gradients/dropout/dropout/mul_1_grad/tuple/control_dependency"
  op: "Identity"
  input: "gradients/dropout/dropout/mul_1_grad/Reshape"
…
        shape {
          dim {
            size: 1
          }
        }
      }
    }
  }
  attr {
    key: "dtype"
    value {
      type: DT_INT32
    }
  }
  attr {
    key: "value"
    value {
      tensor {
        dtype: DT_INT32
        tensor_shape {
          dim {
            size: 1
          }
        }
        int_val: 1
      }
    }
  }
}
node {
  name: "report_uninitialized_variables_1/boolean_mask/strided_slice_1"
  op: "StridedSlice"
  input: "report_uninitialized_variables_1/boolean_mask/Shape_1"
  input: "report_uninitialized_variables_1/boolean_mask/strided_slice_1/stack"
  input: "report_uninitialized_variables_1/boolean_mask/strided_slice_1/stack_1"
  input: "report_uninitialized_variables_1/boolean_mask/strided_slice_1/stack_2"
  device: "/device:CPU:0"
  attr {
    key: "Index"
    value {
      type: DT_INT32
    }
  }
  attr {
    key: "T"
    value {
      type: DT_INT32
    }
  }
  attr {
    key: "_output_shapes"
    value {
      list {
        shape {
          dim {
          }
        }
      }
    }
  }
  attr {
    key: "begin_mask"
    value {
      i: 1
    }
  }
  attr {
    key: "ellipsis_mask"
    value {
      i: 0
    }
  }
  attr {
    key: "end_mask"
    value {
      i: 0
    }
  }
  attr {
    key: "new_axis_mask"
    value {
      i: 0
    }
  }
  attr {
    key: "shrink_axis_mask"
    value {
      i: 0
    }
  }
}
node {
  name: "report_uninitialized_variables_1/boolean_mask/Shape_2"
  op: "Const"
  device: "/device:CPU:0"
  attr {
    key: "_output_shapes"
    value {
      list {
        shape {
          dim {
            size: 1
          }
        }
      }
    }
  }
  attr {
    key: "dtype"
    value {
      type: DT_INT32
    }
  }
  attr {
    key: "value"
    value {
      tensor {
        dtype: DT_INT32
        tensor_shape {
          dim {
            size: 1
          }
        }
        int_val: 9
      }
    }
  }
}
node {
  name: "report_uninitialized_variables_1/boolean_mask/strided_slice_2/stack"
  op: "Const"
  device: "/device:CPU:0"
  attr {
    key: "_output_shapes"
    value {
      list {
        shape {
          dim {
            size: 1
          }
        }
      }
    }
  }
  attr {
    key: "dtype"
    value {
      type: DT_INT32
    }
  }
  attr {
    key: "value"
    value {
      tensor {
        dtype: DT_INT32
        tensor_shape {
          dim {
            size: 1
          }
        }
        int_val: 1
      }
    }
  }
}
node {
  name: "report_uninitialized_variables_1/boolean_mask/strided_slice_2/stack_1"
  op: "Const"
  device: "/device:CPU:0"
  attr {
    key: "_output_shapes"
    value {
      list {
        shape {
          dim {
            size: 1
          }
        }
      }
    }
  }
  attr {
    key: "dtype"
    value {
      type: DT_INT32
    }
  }
  attr {
    key: "value"
    value {
      tensor {
        dtype: DT_INT32
        tensor_shape {
          dim {
            size: 1
          }
        }
        int_val: 0
      }
    }
  }
}
node {
  name: "report_uninitialized_variables_1/boolean_mask/strided_slice_2/stack_2"
  op: "Const"
  device: "/device:CPU:0"
  attr {
    key: "_output_shapes"
    value {
      list {
        shape {
          dim {
            size: 1
          }
        }
      }
    }
  }
  attr {
    key: "dtype"
    value {
      type: DT_INT32
    }
  }
  attr {
    key: "value"
    value {
      tensor {
        dtype: DT_INT32
        tensor_shape {
          dim {
            size: 1
          }
        }
        int_val: 1
      }
    }
  }
}
node {
  name: "report_uninitialized_variables_1/boolean_mask/strided_slice_2"
  op: "StridedSlice"
  input: "report_uninitialized_variables_1/boolean_mask/Shape_2"
  input: "report_uninitialized_variables_1/boolean_mask/strided_slice_2/stack"
  input: "report_uninitialized_variables_1/boolean_mask/strided_slice_2/stack_1"
  input: "report_uninitialized_variables_1/boolean_mask/strided_slice_2/stack_2"
  device: "/device:CPU:0"
  attr {
    key: "Index"
    value {
      type: DT_INT32
    }
  }
  attr {
    key: "T"
    value {
      type: DT_INT32
    }
  }
  attr {
    key: "_output_shapes"
    value {
      list {
        shape {
          dim {
          }
        }
      }
    }
  }
  attr {
    key: "begin_mask"
    value {
      i: 0
    }
  }
  attr {
    key: "ellipsis_mask"
    value {
      i: 0
    }
  }
  attr {
    key: "end_mask"
    value {
      i: 1
    }
  }
  attr {
    key: "new_axis_mask"
    value {
      i: 0
    }
  }
  attr {
    key: "shrink_axis_mask"
    value {
      i: 0
    }
  }
}
node {
  name: "report_uninitialized_variables_1/boolean_mask/concat/values_1"
  op: "Pack"
  input: "report_uninitialized_variables_1/boolean_mask/Prod"
  device: "/device:CPU:0"
  attr {
    key: "N"
    value {
      i: 1
    }
  }
  attr {
    key: "T"
    value {
      type: DT_INT32
    }
  }
  attr {
    key: "_output_shapes"
    value {
      list {
        shape {
          dim {
            size: 1
          }
        }
      }
    }
  }
  attr {
    key: "axis"
    value {
      i: 0
    }
  }
}
node {
  name: "report_uninitialized_variables_1/boolean_mask/concat/axis"
  op: "Const"
  device: "/device:CPU:0"
  attr {
    key: "_output_shapes"
    value {
      list {
        shape {
        }
      }
    }
  }
  attr {
    key: "dtype"
    value {
      type: DT_INT32
    }
  }
  attr {
    key: "value"
    value {
      tensor {
        dtype: DT_INT32
        tensor_shape {
        }
        int_val: 0
      }
    }
  }
}
node {
  name: "report_uninitialized_variables_1/boolean_mask/concat"
  op: "ConcatV2"
  input: "report_uninitialized_variables_1/boolean_mask/strided_slice_1"
  input: "report_uninitialized_variables_1/boolean_mask/concat/values_1"
  input: "report_uninitialized_variables_1/boolean_mask/strided_slice_2"
  input: "report_uninitialized_variables_1/boolean_mask/concat/axis"
  device: "/device:CPU:0"
  attr {
    key: "N"
    value {
      i: 3
    }
  }
  attr {
    key: "T"
    value {
      type: DT_INT32
    }
  }
  attr {
    key: "Tidx"
    value {
      type: DT_INT32
    }
  }
  attr {
    key: "_output_shapes"
    value {
      list {
        shape {
          dim {
            size: 1
          }
        }
      }
    }
  }
}
node {
  name: "report_uninitialized_variables_1/boolean_mask/Reshape"
  op: "Reshape"
  input: "report_uninitialized_variables_1/Const"
  input: "report_uninitialized_variables_1/boolean_mask/concat"
  device: "/device:CPU:0"
  attr {
    key: "T"
    value {
      type: DT_STRING
    }
  }
  attr {
    key: "Tshape"
    value {
      type: DT_INT32
    }
  }
  attr {
    key: "_output_shapes"
    value {
      list {
        shape {
          dim {
            size: 9
          }
        }
      }
    }
  }
}
node {
  name: "report_uninitialized_variables_1/boolean_mask/Reshape_1/shape"
  op: "Const"
  device: "/device:CPU:0"
  attr {
    key: "_output_shapes"
    value {
      list {
        shape {
          dim {
            size: 1
          }
        }
      }
    }
  }
  attr {
    key: "dtype"
    value {
      type: DT_INT32
    }
  }
  attr {
    key: "value"
    value {
      tensor {
        dtype: DT_INT32
        tensor_shape {
          dim {
            size: 1
          }
        }
        int_val: -1
      }
    }
  }
}
node {
  name: "report_uninitialized_variables_1/boolean_mask/Reshape_1"
  op: "Reshape"
  input: "report_uninitialized_variables_1/LogicalNot"
  input: "report_uninitialized_variables_1/boolean_mask/Reshape_1/shape"
  device: "/device:CPU:0"
  attr {
    key: "T"
    value {
      type: DT_BOOL
    }
  }
  attr {
    key: "Tshape"
    value {
      type: DT_INT32
    }
  }
  attr {
    key: "_output_shapes"
    value {
      list {
        shape {
          dim {
            size: 9
          }
        }
      }
    }
  }
}
node {
  name: "report_uninitialized_variables_1/boolean_mask/Where"
  op: "Where"
  input: "report_uninitialized_variables_1/boolean_mask/Reshape_1"
  device: "/device:CPU:0"
  attr {
    key: "T"
    value {
      type: DT_BOOL
    }
  }
  attr {
    key: "_output_shapes"
    value {
      list {
        shape {
          dim {
            size: -1
          }
          dim {
            size: 1
          }
        }
      }
    }
  }
}
node {
  name: "report_uninitialized_variables_1/boolean_mask/Squeeze"
  op: "Squeeze"
  input: "report_uninitialized_variables_1/boolean_mask/Where"
  device: "/device:CPU:0"
  attr {
    key: "T"
    value {
      type: DT_INT64
    }
  }
  attr {
    key: "_output_shapes"
    value {
      list {
        shape {
          dim {
            size: -1
          }
        }
      }
    }
  }
  attr {
    key: "squeeze_dims"
    value {
      list {
        i: 1
      }
    }
  }
}
node {
  name: "report_uninitialized_variables_1/boolean_mask/GatherV2/axis"
  op: "Const"
  device: "/device:CPU:0"
  attr {
    key: "_output_shapes"
    value {
      list {
        shape {
        }
      }
    }
  }
  attr {
    key: "dtype"
    value {
      type: DT_INT32
    }
  }
  attr {
    key: "value"
    value {
      tensor {
        dtype: DT_INT32
        tensor_shape {
        }
        int_val: 0
      }
    }
  }
}
node {
  name: "report_uninitialized_variables_1/boolean_mask/GatherV2"
  op: "GatherV2"
  input: "report_uninitialized_variables_1/boolean_mask/Reshape"
  input: "report_uninitialized_variables_1/boolean_mask/Squeeze"
  input: "report_uninitialized_variables_1/boolean_mask/GatherV2/axis"
  device: "/device:CPU:0"
  attr {
    key: "Taxis"
    value {
      type: DT_INT32
    }
  }
  attr {
    key: "Tindices"
    value {
      type: DT_INT64
    }
  }
  attr {
    key: "Tparams"
    value {
      type: DT_STRING
    }
  }
  attr {
    key: "_output_shapes"
    value {
      list {
        shape {
          dim {
            size: -1
          }
        }
      }
    }
  }
  attr {
    key: "batch_dims"
    value {
      i: 0
    }
  }
}
node {
  name: "report_uninitialized_resources_1/Const"
  op: "Const"
  device: "/device:CPU:0"
  attr {
    key: "_output_shapes"
    value {
      list {
        shape {
          dim {
          }
        }
      }
    }
  }
  attr {
    key: "dtype"
    value {
      type: DT_STRING
    }
  }
  attr {
    key: "value"
    value {
      tensor {
        dtype: DT_STRING
        tensor_shape {
          dim {
          }
        }
      }
    }
  }
}
node {
  name: "concat_1/axis"
  op: "Const"
  attr {
    key: "_output_shapes"
    value {
      list {
        shape {
        }
      }
    }
  }
  attr {
    key: "dtype"
    value {
      type: DT_INT32
    }
  }
  attr {
    key: "value"
    value {
      tensor {
        dtype: DT_INT32
        tensor_shape {
        }
        int_val: 0
      }
    }
  }
}
node {
  name: "concat_1"
  op: "ConcatV2"
  input: "report_uninitialized_variables_1/boolean_mask/GatherV2"
  input: "report_uninitialized_resources_1/Const"
  input: "concat_1/axis"
  attr {
    key: "N"
    value {
      i: 2
    }
  }
  attr {
    key: "T"
    value {
      type: DT_STRING
    }
  }
  attr {
    key: "Tidx"
    value {
      type: DT_INT32
    }
  }
  attr {
    key: "_output_shapes"
    value {
      list {
        shape {
          dim {
            size: -1
          }
        }
      }
    }
  }
}
node {
  name: "init_2"
  op: "NoOp"
  input: "^acc_op/count/Assign"
  input: "^acc_op/total/Assign"
}
node {
  name: "init_all_tables"
  op: "NoOp"
}
node {
  name: "init_3"
  op: "NoOp"
}
node {
  name: "group_deps_1"
  op: "NoOp"
  input: "^init_2"
  input: "^init_3"
  input: "^init_all_tables"
}
node {
  name: "Merge/MergeSummary"
  op: "MergeSummary"
  input: "accuracy"
  input: "loss"
  attr {
    key: "N"
    value {
      i: 2
    }
  }
  attr {
    key: "_output_shapes"
    value {
      list {
        shape {
        }
      }
    }
  }
}
node {
  name: "save/filename/input"
  op: "Const"
  attr {
    key: "_output_shapes"
    value {
      list {
        shape {
        }
      }
    }
  }
  attr {
    key: "dtype"
    value {
      type: DT_STRING
    }
  }
  attr {
    key: "value"
    value {
      tensor {
        dtype: DT_STRING
        tensor_shape {
        }
        string_val: "model"
      }
    }
  }
}
node {
  name: "save/filename"
  op: "PlaceholderWithDefault"
  input: "save/filename/input"
  attr {
    key: "_output_shapes"
    value {
      list {
        shape {
        }
      }
    }
  }
  attr {
    key: "dtype"
    value {
      type: DT_STRING
    }
  }
  attr {
    key: "shape"
    value {
      shape {
      }
    }
  }
}
node {
  name: "save/Const"
  op: "PlaceholderWithDefault"
  input: "save/filename"
  attr {
    key: "_output_shapes"
    value {
      list {
        shape {
        }
      }
    }
  }
  attr {
    key: "dtype"
    value {
      type: DT_STRING
    }
  }
  attr {
    key: "shape"
    value {
      shape {
      }
    }
  }
}
node {
  name: "save/StringJoin/inputs_1"
  op: "Const"
  attr {
    key: "_output_shapes"
    value {
      list {
        shape {
        }
      }
    }
  }
  attr {
    key: "dtype"
    value {
      type: DT_STRING
    }
  }
  attr {
    key: "value"
    value {
      tensor {
        dtype: DT_STRING
        tensor_shape {
        }
        string_val: "_temp_fdbcfe1279b04c07adefeb5ef618f488/part"
      }
    }
  }
}
node {
  name: "save/StringJoin"
  op: "StringJoin"
  input: "save/Const"
  input: "save/StringJoin/inputs_1"
  attr {
    key: "N"
    value {
      i: 2
    }
  }
  attr {
    key: "_output_shapes"
    value {
      list {
        shape {
        }
      }
    }
  }
  attr {
    key: "separator"
    value {
      s: ""
    }
  }
}
node {
  name: "save/num_shards"
  op: "Const"
  attr {
    key: "_output_shapes"
    value {
      list {
        shape {
        }
      }
    }
  }
  attr {
    key: "dtype"
    value {
      type: DT_INT32
    }
  }
  attr {
    key: "value"
    value {
      tensor {
        dtype: DT_INT32
        tensor_shape {
        }
        int_val: 1
      }
    }
  }
}
node {
  name: "save/ShardedFilename/shard"
  op: "Const"
  device: "/device:CPU:0"
  attr {
    key: "_output_shapes"
    value {
      list {
        shape {
        }
      }
    }
  }
  attr {
    key: "dtype"
    value {
      type: DT_INT32
    }
  }
  attr {
    key: "value"
    value {
      tensor {
        dtype: DT_INT32
        tensor_shape {
        }
        int_val: 0
      }
    }
  }
}
node {
  name: "save/ShardedFilename"
  op: "ShardedFilename"
  input: "save/StringJoin"
  input: "save/ShardedFilename/shard"
  input: "save/num_shards"
  device: "/device:CPU:0"
  attr {
    key: "_output_shapes"
    value {
      list {
        shape {
        }
      }
    }
  }
}
node {
  name: "save/SaveV2/tensor_names"
  op: "Const"
  device: "/device:CPU:0"
  attr {
    key: "_output_shapes"
    value {
      list {
        shape {
          dim {
            size: 9
          }
        }
      }
    }
  }
  attr {
    key: "dtype"
    value {
      type: DT_STRING
    }
  }
  attr {
    key: "value"
    value {
      tensor {
        dtype: DT_STRING
        tensor_shape {
          dim {
            size: 9
          }
        }
        string_val: "convolutional_2d_1537261701724/bias"
        string_val: "convolutional_2d_1537261701724/kernel"
        string_val: "convolutional_2d_1537261728442/bias"
        string_val: "convolutional_2d_1537261728442/kernel"
        string_val: "dense/bias"
        string_val: "dense/kernel"
        string_val: "dense_1/bias"
        string_val: "dense_1/kernel"
        string_val: "global_step"
      }
    }
  }
}
node {
  name: "save/SaveV2/shape_and_slices"
  op: "Const"
  device: "/device:CPU:0"
  attr {
    key: "_output_shapes"
    value {
      list {
        shape {
          dim {
            size: 9
          }
        }
      }
    }
  }
  attr {
    key: "dtype"
    value {
      type: DT_STRING
    }
  }
  attr {
    key: "value"
    value {
      tensor {
        dtype: DT_STRING
        tensor_shape {
          dim {
            size: 9
          }
        }
        string_val: ""
        string_val: ""
        string_val: ""
        string_val: ""
        string_val: ""
        string_val: ""
        string_val: ""
        string_val: ""
        string_val: ""
      }
    }
  }
}
node {
  name: "save/SaveV2"
  op: "SaveV2"
  input: "save/ShardedFilename"
  input: "save/SaveV2/tensor_names"
  input: "save/SaveV2/shape_and_slices"
  input: "convolutional_2d_1537261701724/bias"
  input: "convolutional_2d_1537261701724/kernel"
  input: "convolutional_2d_1537261728442/bias"
  input: "convolutional_2d_1537261728442/kernel"
  input: "dense/bias"
  input: "dense/kernel"
  input: "dense_1/bias"
  input: "dense_1/kernel"
  input: "global_step"
  device: "/device:CPU:0"
  attr {
    key: "dtypes"
    value {
      list {
        type: DT_HALF
        type: DT_HALF
        type: DT_HALF
        type: DT_HALF
        type: DT_HALF
        type: DT_HALF
        type: DT_HALF
        type: DT_HALF
        type: DT_INT64
      }
    }
  }
}
node {
  name: "save/control_dependency"
  op: "Identity"
  input: "save/ShardedFilename"
  input: "^save/SaveV2"
  device: "/device:CPU:0"
  attr {
    key: "T"
    value {
      type: DT_STRING
    }
  }
  attr {
    key: "_class"
    value {
      list {
        s: "loc:@save/ShardedFilename"
      }
    }
  }
  attr {
    key: "_output_shapes"
    value {
      list {
        shape {
        }
      }
    }
  }
}
node {
  name: "save/MergeV2Checkpoints/checkpoint_prefixes"
  op: "Pack"
  input: "save/ShardedFilename"
  input: "^save/control_dependency"
  device: "/device:CPU:0"
  attr {
    key: "N"
    value {
      i: 1
    }
  }
  attr {
    key: "T"
    value {
      type: DT_STRING
    }
  }
  attr {
    key: "_output_shapes"
    value {
      list {
        shape {
          dim {
            size: 1
          }
        }
      }
    }
  }
  attr {
    key: "axis"
    value {
      i: 0
    }
  }
}
node {
  name: "save/MergeV2Checkpoints"
  op: "MergeV2Checkpoints"
  input: "save/MergeV2Checkpoints/checkpoint_prefixes"
  input: "save/Const"
  device: "/device:CPU:0"
  attr {
    key: "delete_old_dirs"
    value {
      b: true
    }
  }
}
node {
  name: "save/Identity"
  op: "Identity"
  input: "save/Const"
  input: "^save/MergeV2Checkpoints"
  input: "^save/control_dependency"
  device: "/device:CPU:0"
  attr {
    key: "T"
    value {
      type: DT_STRING
    }
  }
  attr {
    key: "_output_shapes"
    value {
      list {
        shape {
        }
      }
    }
  }
}
node {
  name: "save/RestoreV2/tensor_names"
  op: "Const"
  device: "/device:CPU:0"
  attr {
    key: "_output_shapes"
    value {
      list {
        shape {
          dim {
            size: 9
          }
        }
      }
    }
  }
  attr {
    key: "dtype"
    value {
      type: DT_STRING
    }
  }
  attr {
    key: "value"
    value {
      tensor {
        dtype: DT_STRING
        tensor_shape {
          dim {
            size: 9
          }
        }
        string_val: "convolutional_2d_1537261701724/bias"
        string_val: "convolutional_2d_1537261701724/kernel"
        string_val: "convolutional_2d_1537261728442/bias"
        string_val: "convolutional_2d_1537261728442/kernel"
        string_val: "dense/bias"
        string_val: "dense/kernel"
        string_val: "dense_1/bias"
        string_val: "dense_1/kernel"
        string_val: "global_step"
      }
    }
  }
}
node {
  name: "save/RestoreV2/shape_and_slices"
  op: "Const"
  device: "/device:CPU:0"
  attr {
    key: "_output_shapes"
    value {
      list {
        shape {
          dim {
            size: 9
          }
        }
      }
    }
  }
  attr {
    key: "dtype"
    value {
      type: DT_STRING
    }
  }
  attr {
    key: "value"
    value {
      tensor {
        dtype: DT_STRING
        tensor_shape {
          dim {
            size: 9
          }
        }
        string_val: ""
        string_val: ""
        string_val: ""
        string_val: ""
        string_val: ""
        string_val: ""
        string_val: ""
        string_val: ""
        string_val: ""
      }
    }
  }
}
node {
  name: "save/RestoreV2"
  op: "RestoreV2"
  input: "save/Const"
  input: "save/RestoreV2/tensor_names"
  input: "save/RestoreV2/shape_and_slices"
  device: "/device:CPU:0"
  attr {
    key: "_output_shapes"
    value {
      list {
        shape {
          unknown_rank: true
        }
        shape {
          unknown_rank: true
        }
        shape {
          unknown_rank: true
        }
        shape {
          unknown_rank: true
        }
        shape {
          unknown_rank: true
        }
        shape {
          unknown_rank: true
        }
        shape {
          unknown_rank: true
        }
        shape {
          unknown_rank: true
        }
        shape {
          unknown_rank: true
        }
      }
    }
  }
  attr {
    key: "dtypes"
    value {
      list {
        type: DT_HALF
        type: DT_HALF
        type: DT_HALF
        type: DT_HALF
        type: DT_HALF
        type: DT_HALF
        type: DT_HALF
        type: DT_HALF
        type: DT_INT64
      }
    }
  }
}
node {
  name: "save/Assign"
  op: "Assign"
  input: "convolutional_2d_1537261701724/bias"
  input: "save/RestoreV2"
  attr {
    key: "T"
    value {
      type: DT_HALF
    }
  }
  attr {
    key: "_class"
    value {
      list {
        s: "loc:@convolutional_2d_1537261701724/bias"
      }
    }
  }
  attr {
    key: "_output_shapes"
    value {
      list {
        shape {
          dim {
            size: 32
          }
        }
      }
    }
  }
  attr {
    key: "use_locking"
    value {
      b: true
    }
  }
  attr {
    key: "validate_shape"
    value {
      b: true
    }
  }
}
node {
  name: "save/Assign_1"
  op: "Assign"
  input: "convolutional_2d_1537261701724/kernel"
  input: "save/RestoreV2:1"
  attr {
    key: "T"
    value {
      type: DT_HALF
    }
  }
  attr {
    key: "_class"
    value {
      list {
        s: "loc:@convolutional_2d_1537261701724/kernel"
      }
    }
  }
  attr {
    key: "_output_shapes"
    value {
      list {
        shape {
          dim {
            size: 5
          }
          dim {
            size: 5
          }
          dim {
            size: 1
          }
          dim {
            size: 32
          }
        }
      }
    }
  }
  attr {
    key: "use_locking"
    value {
      b: true
    }
  }
  attr {
    key: "validate_shape"
    value {
      b: true
    }
  }
}
node {
  name: "save/Assign_2"
  op: "Assign"
  input: "convolutional_2d_1537261728442/bias"
  input: "save/RestoreV2:2"
  attr {
    key: "T"
    value {
      type: DT_HALF
    }
  }
  attr {
    key: "_class"
    value {
      list {
        s: "loc:@convolutional_2d_1537261728442/bias"
      }
    }
  }
  attr {
    key: "_output_shapes"
    value {
      list {
        shape {
          dim {
            size: 64
          }
        }
      }
    }
  }
  attr {
    key: "use_locking"
    value {
      b: true
    }
  }
  attr {
    key: "validate_shape"
    value {
      b: true
    }
  }
}
node {
  name: "save/Assign_3"
  op: "Assign"
  input: "convolutional_2d_1537261728442/kernel"
  input: "save/RestoreV2:3"
  attr {
    key: "T"
    value {
      type: DT_HALF
    }
  }
  attr {
    key: "_class"
    value {
      list {
        s: "loc:@convolutional_2d_1537261728442/kernel"
      }
    }
  }
  attr {
    key: "_output_shapes"
    value {
      list {
        shape {
          dim {
            size: 5
          }
          dim {
            size: 5
          }
          dim {
            size: 32
          }
          dim {
            size: 64
          }
        }
      }
    }
  }
  attr {
    key: "use_locking"
    value {
      b: true
    }
  }
  attr {
    key: "validate_shape"
    value {
      b: true
    }
  }
}
node {
  name: "save/Assign_4"
  op: "Assign"
  input: "dense/bias"
  input: "save/RestoreV2:4"
  attr {
    key: "T"
    value {
      type: DT_HALF
    }
  }
  attr {
    key: "_class"
    value {
      list {
        s: "loc:@dense/bias"
      }
    }
  }
  attr {
    key: "_output_shapes"
    value {
      list {
        shape {
          dim {
            size: 1024
          }
        }
      }
    }
  }
  attr {
    key: "use_locking"
    value {
      b: true
    }
  }
  attr {
    key: "validate_shape"
    value {
      b: true
    }
  }
}
node {
  name: "save/Assign_5"
  op: "Assign"
  input: "dense/kernel"
  input: "save/RestoreV2:5"
  attr {
    key: "T"
    value {
      type: DT_HALF
    }
  }
  attr {
    key: "_class"
    value {
      list {
        s: "loc:@dense/kernel"
      }
    }
  }
  attr {
    key: "_output_shapes"
    value {
      list {
        shape {
          dim {
            size: 1600
          }
          dim {
            size: 1024
          }
        }
      }
    }
  }
  attr {
    key: "use_locking"
    value {
      b: true
    }
  }
  attr {
    key: "validate_shape"
    value {
      b: true
    }
  }
}
node {
  name: "save/Assign_6"
  op: "Assign"
  input: "dense_1/bias"
  input: "save/RestoreV2:6"
  attr {
    key: "T"
    value {
      type: DT_HALF
    }
  }
  attr {
    key: "_class"
    value {
      list {
        s: "loc:@dense_1/bias"
      }
    }
  }
  attr {
    key: "_output_shapes"
    value {
      list {
        shape {
          dim {
            size: 30
          }
        }
      }
    }
  }
  attr {
    key: "use_locking"
    value {
      b: true
    }
  }
  attr {
    key: "validate_shape"
    value {
      b: true
    }
  }
}
node {
  name: "save/Assign_7"
  op: "Assign"
  input: "dense_1/kernel"
  input: "save/RestoreV2:7"
  attr {
    key: "T"
    value {
      type: DT_HALF
    }
  }
  attr {
    key: "_class"
    value {
      list {
        s: "loc:@dense_1/kernel"
      }
    }
  }
  attr {
    key: "_output_shapes"
    value {
      list {
        shape {
          dim {
            size: 1024
          }
          dim {
            size: 30
          }
        }
      }
    }
  }
  attr {
    key: "use_locking"
    value {
      b: true
    }
  }
  attr {
    key: "validate_shape"
    value {
      b: true
    }
  }
}
node {
  name: "save/Assign_8"
  op: "Assign"
  input: "global_step"
  input: "save/RestoreV2:8"
  attr {
    key: "T"
    value {
      type: DT_INT64
    }
  }
  attr {
    key: "_class"
    value {
      list {
        s: "loc:@global_step"
      }
    }
  }
  attr {
    key: "_output_shapes"
    value {
      list {
        shape {
        }
      }
    }
  }
  attr {
    key: "use_locking"
    value {
      b: true
    }
  }
  attr {
    key: "validate_shape"
    value {
      b: true
    }
  }
}
node {
  name: "save/restore_shard"
  op: "NoOp"
  input: "^save/Assign"
  input: "^save/Assign_1"
  input: "^save/Assign_2"
  input: "^save/Assign_3"
  input: "^save/Assign_4"
  input: "^save/Assign_5"
  input: "^save/Assign_6"
  input: "^save/Assign_7"
  input: "^save/Assign_8"
}
node {
  name: "save/restore_all"
  op: "NoOp"
  input: "^save/restore_shard"
}
library {
  function {
    signature {
      name: "_make_dataset_19uyMmDn4vo"
      output_arg {
        name: "modeldataset"
        type: DT_VARIANT
      }
      description: "Factory function for a dataset."
      is_stateful: true
    }
    node_def {
      name: "optimizations"
      op: "Const"
      device: "/device:CPU:0"
      attr {
        key: "dtype"
        value {
          type: DT_STRING
        }
      }
      attr {
        key: "value"
        value {
          tensor {
            dtype: DT_STRING
            tensor_shape {
              dim {
                size: 3
              }
            }
            string_val: "map_and_batch_fusion"
            string_val: "noop_elimination"
            string_val: "shuffle_and_repeat_fusion"
          }
        }
      }
    }
    node_def {
      name: "OptimizeDataset/Const"
      op: "Const"
      device: "/device:CPU:0"
      attr {
        key: "dtype"
        value {
          type: DT_STRING
        }
      }
      attr {
        key: "value"
        value {
          tensor {
            dtype: DT_STRING
            tensor_shape {
              dim {
                size: 1
              }
            }
            string_val: "./chars_seg/DNN_data/train.tfrecords"
          }
        }
      }
    }
    node_def {
      name: "OptimizeDataset/flat_filenames/shape"
      op: "Const"
      device: "/device:CPU:0"
      attr {
        key: "dtype"
        value {
          type: DT_INT32
        }
      }
      attr {
        key: "value"
        value {
          tensor {
            dtype: DT_INT32
            tensor_shape {
              dim {
                size: 1
              }
            }
            int_val: -1
          }
        }
      }
    }
    node_def {
      name: "OptimizeDataset/flat_filenames"
      op: "Reshape"
      input: "OptimizeDataset/Const:output:0"
      input: "OptimizeDataset/flat_filenames/shape:output:0"
      device: "/device:CPU:0"
      attr {
        key: "T"
        value {
          type: DT_STRING
        }
      }
      attr {
        key: "Tshape"
        value {
          type: DT_INT32
        }
      }
    }
    node_def {
      name: "OptimizeDataset/TensorSliceDataset"
      op: "TensorSliceDataset"
      input: "OptimizeDataset/flat_filenames:output:0"
      device: "/device:CPU:0"
      attr {
        key: "Toutput_types"
        value {
          list {
            type: DT_STRING
          }
        }
      }
      attr {
        key: "output_shapes"
        value {
          list {
            shape {
            }
          }
        }
      }
    }
    node_def {
      name: "OptimizeDataset/FlatMapDataset"
      op: "FlatMapDataset"
      input: "OptimizeDataset/TensorSliceDataset:handle:0"
      device: "/device:CPU:0"
      attr {
        key: "Targuments"
        value {
          list {
          }
        }
      }
      attr {
        key: "f"
        value {
          func {
            name: "__inference_Dataset_flat_map_read_one_file_1106"
          }
        }
      }
      attr {
        key: "output_shapes"
        value {
          list {
            shape {
            }
          }
        }
      }
      attr {
        key: "output_types"
        value {
          list {
            type: DT_STRING
          }
        }
      }
    }
    node_def {
      name: "OptimizeDataset/count"
      op: "Const"
      device: "/device:CPU:0"
      attr {
        key: "dtype"
        value {
          type: DT_INT64
        }
      }
      attr {
        key: "value"
        value {
          tensor {
            dtype: DT_INT64
            tensor_shape {
            }
            int64_val: -1
          }
        }
      }
    }
    node_def {
      name: "OptimizeDataset/RepeatDataset"
      op: "RepeatDataset"
      input: "OptimizeDataset/FlatMapDataset:handle:0"
      input: "OptimizeDataset/count:output:0"
      device: "/device:CPU:0"
      attr {
        key: "output_shapes"
        value {
          list {
            shape {
            }
          }
        }
      }
      attr {
        key: "output_types"
        value {
          list {
            type: DT_STRING
          }
        }
      }
    }
    node_def {
      name: "OptimizeDataset/num_parallel_calls"
      op: "Const"
      device: "/device:CPU:0"
      attr {
        key: "dtype"
        value {
          type: DT_INT32
        }
      }
      attr {
        key: "value"
        value {
          tensor {
            dtype: DT_INT32
            tensor_shape {
            }
            int_val: 100
          }
        }
      }
    }
    node_def {
      name: "OptimizeDataset/ParallelMapDataset"
      op: "ParallelMapDataset"
      input: "OptimizeDataset/RepeatDataset:handle:0"
      input: "OptimizeDataset/num_parallel_calls:output:0"
      device: "/device:CPU:0"
      attr {
        key: "Targuments"
        value {
          list {
          }
        }
      }
      attr {
        key: "f"
        value {
          func {
            name: "__inference_Dataset_map__parser_function_1126"
          }
        }
      }
      attr {
        key: "output_shapes"
        value {
          list {
            shape {
              dim {
                size: 20
              }
              dim {
                size: 20
              }
              dim {
                size: 1
              }
            }
            shape {
            }
          }
        }
      }
      attr {
        key: "output_types"
        value {
          list {
            type: DT_HALF
            type: DT_INT64
          }
        }
      }
      attr {
        key: "preserve_cardinality"
        value {
          b: false
        }
      }
      attr {
        key: "sloppy"
        value {
          b: false
        }
      }
      attr {
        key: "use_inter_op_parallelism"
        value {
          b: true
        }
      }
    }
    node_def {
      name: "OptimizeDataset/batch_size"
      op: "Const"
      device: "/device:CPU:0"
      attr {
        key: "dtype"
        value {
          type: DT_INT64
        }
      }
      attr {
        key: "value"
        value {
          tensor {
            dtype: DT_INT64
            tensor_shape {
            }
            int64_val: 100
          }
        }
      }
    }
    node_def {
      name: "OptimizeDataset/drop_remainder"
      op: "Const"
      device: "/device:CPU:0"
      attr {
        key: "dtype"
        value {
          type: DT_BOOL
        }
      }
      attr {
        key: "value"
        value {
          tensor {
            dtype: DT_BOOL
            tensor_shape {
            }
            bool_val: false
          }
        }
      }
    }
    node_def {
      name: "OptimizeDataset/BatchDatasetV2"
      op: "BatchDatasetV2"
      input: "OptimizeDataset/ParallelMapDataset:handle:0"
      input: "OptimizeDataset/batch_size:output:0"
      input: "OptimizeDataset/drop_remainder:output:0"
      device: "/device:CPU:0"
      attr {
        key: "output_shapes"
        value {
          list {
            shape {
              dim {
                size: -1
              }
              dim {
                size: 20
              }
              dim {
                size: 20
              }
              dim {
                size: 1
              }
            }
            shape {
              dim {
                size: -1
              }
            }
          }
        }
      }
      attr {
        key: "output_types"
        value {
          list {
            type: DT_HALF
            type: DT_INT64
          }
        }
      }
      attr {
        key: "parallel_copy"
        value {
          b: false
        }
      }
    }
    node_def {
      name: "OptimizeDataset/buffer_size"
      op: "Const"
      device: "/device:CPU:0"
      attr {
        key: "dtype"
        value {
          type: DT_INT64
        }
      }
      attr {
        key: "value"
        value {
          tensor {
            dtype: DT_INT64
            tensor_shape {
            }
            int64_val: 100
          }
        }
      }
    }
    node_def {
      name: "OptimizeDataset/seed"
      op: "Const"
      device: "/device:CPU:0"
      attr {
        key: "dtype"
        value {
          type: DT_INT64
        }
      }
      attr {
        key: "value"
        value {
          tensor {
            dtype: DT_INT64
            tensor_shape {
            }
            int64_val: 0
          }
        }
      }
    }
    node_def {
      name: "OptimizeDataset/seed2"
      op: "Const"
      device: "/device:CPU:0"
      attr {
        key: "dtype"
        value {
          type: DT_INT64
        }
      }
      attr {
        key: "value"
        value {
          tensor {
            dtype: DT_INT64
            tensor_shape {
            }
            int64_val: 0
          }
        }
      }
    }
    node_def {
      name: "OptimizeDataset/ShuffleDataset"
      op: "ShuffleDataset"
      input: "OptimizeDataset/BatchDatasetV2:handle:0"
      input: "OptimizeDataset/buffer_size:output:0"
      input: "OptimizeDataset/seed:output:0"
      input: "OptimizeDataset/seed2:output:0"
      device: "/device:CPU:0"
      attr {
        key: "output_shapes"
        value {
          list {
            shape {
              dim {
                size: -1
              }
              dim {
                size: 20
              }
              dim {
                size: 20
              }
              dim {
                size: 1
              }
            }
            shape {
              dim {
                size: -1
              }
            }
          }
        }
      }
      attr {
        key: "output_types"
        value {
          list {
            type: DT_HALF
            type: DT_INT64
          }
        }
      }
      attr {
        key: "reshuffle_each_iteration"
        value {
          b: true
        }
      }
    }
    node_def {
      name: "OptimizeDataset"
      op: "OptimizeDataset"
      input: "OptimizeDataset/ShuffleDataset:handle:0"
      input: "optimizations:output:0"
      device: "/device:CPU:0"
      attr {
        key: "optimization_configs"
        value {
          list {
            s: "map_vectorization:use_choose_fastest:false"
          }
        }
      }
      attr {
        key: "output_shapes"
        value {
          list {
            shape {
              dim {
                size: -1
              }
              dim {
                size: 20
              }
              dim {
                size: 20
              }
              dim {
                size: 1
              }
            }
            shape {
              dim {
                size: -1
              }
            }
          }
        }
      }
      attr {
        key: "output_types"
        value {
          list {
            type: DT_HALF
            type: DT_INT64
          }
        }
      }
    }
    node_def {
      name: "ModelDataset"
      op: "ModelDataset"
      input: "OptimizeDataset:handle:0"
      device: "/device:CPU:0"
      attr {
        key: "cpu_budget"
        value {
          i: 0
        }
      }
      attr {
        key: "output_shapes"
        value {
          list {
            shape {
              dim {
                size: -1
              }
              dim {
                size: 20
              }
              dim {
                size: 20
              }
              dim {
                size: 1
              }
            }
            shape {
              dim {
                size: -1
              }
            }
          }
        }
      }
      attr {
        key: "output_types"
        value {
          list {
            type: DT_HALF
            type: DT_INT64
          }
        }
      }
    }
    ret {
      key: "modeldataset"
      value: "ModelDataset:handle:0"
    }
    attr {
      key: "_disable_call_shape_inference"
      value {
        b: true
      }
    }
  }
  function {
    signature {
      name: "__inference_Dataset_flat_map_read_one_file_1106"
      input_arg {
        name: "args_0"
        type: DT_STRING
      }
      output_arg {
        name: "identity"
        type: DT_VARIANT
      }
      is_stateful: true
      control_output: "TFRecordDataset"
    }
    node_def {
      name: "compression_type"
      op: "Const"
      attr {
        key: "_output_shapes"
        value {
          list {
            shape {
            }
          }
        }
      }
      attr {
        key: "dtype"
        value {
          type: DT_STRING
        }
      }
      attr {
        key: "value"
        value {
          tensor {
            dtype: DT_STRING
            tensor_shape {
            }
            string_val: ""
          }
        }
      }
    }
    node_def {
      name: "buffer_size"
      op: "Const"
      attr {
        key: "_output_shapes"
        value {
          list {
            shape {
            }
          }
        }
      }
      attr {
        key: "dtype"
        value {
          type: DT_INT64
        }
      }
      attr {
        key: "value"
        value {
          tensor {
            dtype: DT_INT64
            tensor_shape {
            }
            int64_val: 262144
          }
        }
      }
    }
    node_def {
      name: "TFRecordDataset"
      op: "TFRecordDataset"
      input: "args_0"
      input: "compression_type:output:0"
      input: "buffer_size:output:0"
      attr {
        key: "_output_shapes"
        value {
          list {
            shape {
            }
          }
        }
      }
    }
    node_def {
      name: "Identity"
      op: "Identity"
      input: "TFRecordDataset:handle:0"
      input: "^TFRecordDataset"
      attr {
        key: "T"
        value {
          type: DT_VARIANT
        }
      }
      attr {
        key: "_output_shapes"
        value {
          list {
            shape {
            }
          }
        }
      }
    }
    ret {
      key: "identity"
      value: "Identity:output:0"
    }
    attr {
      key: "_input_shapes"
      value {
        list {
          shape {
          }
        }
      }
    }
    control_ret {
      key: "TFRecordDataset"
      value: "TFRecordDataset"
    }
    arg_attr {
      value {
        attr {
          key: "_user_specified_name"
          value {
            s: "args_0"
          }
        }
      }
    }
  }
  function {
    signature {
      name: "__inference_Dataset_map__parser_function_1126"
      input_arg {
        name: "args_0"
        type: DT_STRING
      }
      output_arg {
        name: "identity"
        type: DT_HALF
      }
      output_arg {
        name: "identity_1"
        type: DT_INT64
      }
    }
    node_def {
      name: "ParseSingleExample/key_data"
      op: "Const"
      attr {
        key: "_output_shapes"
        value {
          list {
            shape {
            }
          }
        }
      }
      attr {
        key: "dtype"
        value {
          type: DT_STRING
        }
      }
      attr {
        key: "value"
        value {
          tensor {
            dtype: DT_STRING
            tensor_shape {
            }
            string_val: ""
          }
        }
      }
    }
    node_def {
      name: "ParseSingleExample/Reshape/shape"
      op: "Const"
      attr {
        key: "_output_shapes"
        value {
          list {
            shape {
              dim {
              }
            }
          }
        }
      }
      attr {
        key: "dtype"
        value {
          type: DT_INT32
        }
      }
      attr {
        key: "value"
        value {
          tensor {
            dtype: DT_INT32
            tensor_shape {
              dim {
              }
            }
          }
        }
      }
    }
    node_def {
      name: "ParseSingleExample/Reshape"
      op: "Reshape"
      input: "ParseSingleExample/key_data:output:0"
      input: "ParseSingleExample/Reshape/shape:output:0"
      attr {
        key: "T"
        value {
          type: DT_STRING
        }
      }
      attr {
        key: "Tshape"
        value {
          type: DT_INT32
        }
      }
      attr {
        key: "_output_shapes"
        value {
          list {
            shape {
            }
          }
        }
      }
    }
    node_def {
      name: "ParseSingleExample/key_label"
      op: "Const"
      attr {
        key: "_output_shapes"
        value {
          list {
            shape {
            }
          }
        }
      }
      attr {
        key: "dtype"
        value {
          type: DT_INT64
        }
      }
      attr {
        key: "value"
        value {
          tensor {
            dtype: DT_INT64
            tensor_shape {
            }
            int64_val: 0
          }
        }
      }
    }
    node_def {
      name: "ParseSingleExample/Reshape_1/shape"
      op: "Const"
      attr {
        key: "_output_shapes"
        value {
          list {
            shape {
              dim {
              }
            }
          }
        }
      }
      attr {
        key: "dtype"
        value {
          type: DT_INT32
        }
      }
      attr {
        key: "value"
        value {
          tensor {
            dtype: DT_INT32
            tensor_shape {
              dim {
              }
            }
          }
        }
      }
    }
    node_def {
      name: "ParseSingleExample/Reshape_1"
      op: "Reshape"
      input: "ParseSingleExample/key_label:output:0"
      input: "ParseSingleExample/Reshape_1/shape:output:0"
      attr {
        key: "T"
        value {
          type: DT_INT64
        }
      }
      attr {
        key: "Tshape"
        value {
          type: DT_INT32
        }
      }
      attr {
        key: "_output_shapes"
        value {
          list {
            shape {
            }
          }
        }
      }
    }
    node_def {
      name: "ParseSingleExample/ParseSingleExample"
      op: "ParseSingleExample"
      input: "args_0"
      input: "ParseSingleExample/Reshape:output:0"
      input: "ParseSingleExample/Reshape_1:output:0"
      attr {
        key: "Tdense"
        value {
          list {
            type: DT_STRING
            type: DT_INT64
          }
        }
      }
      attr {
        key: "_output_shapes"
        value {
          list {
            shape {
            }
            shape {
            }
          }
        }
      }
      attr {
        key: "dense_keys"
        value {
          list {
            s: "data"
            s: "label"
          }
        }
      }
      attr {
        key: "dense_shapes"
        value {
          list {
            shape {
            }
            shape {
            }
          }
        }
      }
      attr {
        key: "num_sparse"
        value {
          i: 0
        }
      }
      attr {
        key: "sparse_keys"
        value {
          list {
          }
        }
      }
      attr {
        key: "sparse_types"
        value {
          list {
          }
        }
      }
    }
    node_def {
      name: "DecodeRaw"
      op: "DecodeRaw"
      input: "ParseSingleExample/ParseSingleExample:dense_values:0"
      attr {
        key: "_output_shapes"
        value {
          list {
            shape {
              dim {
                size: -1
              }
            }
          }
        }
      }
      attr {
        key: "little_endian"
        value {
          b: true
        }
      }
      attr {
        key: "out_type"
        value {
          type: DT_UINT8
        }
      }
    }
    node_def {
      name: "Cast"
      op: "Cast"
      input: "DecodeRaw:output:0"
      attr {
        key: "DstT"
        value {
          type: DT_HALF
        }
      }
      attr {
        key: "SrcT"
        value {
          type: DT_UINT8
        }
      }
      attr {
        key: "Truncate"
        value {
          b: false
        }
      }
      attr {
        key: "_output_shapes"
        value {
          list {
            shape {
              dim {
                size: -1
              }
            }
          }
        }
      }
    }
    node_def {
      name: "stack"
      op: "Const"
      attr {
        key: "_output_shapes"
        value {
          list {
            shape {
              dim {
                size: 3
              }
            }
          }
        }
      }
      attr {
        key: "dtype"
        value {
          type: DT_INT32
        }
      }
      attr {
        key: "value"
        value {
          tensor {
            dtype: DT_INT32
            tensor_shape {
              dim {
                size: 3
              }
            }
            tensor_content: "\024\000\000\000\024\000\000\000\001\000\000\000"
          }
        }
      }
    }
    node_def {
      name: "Reshape"
      op: "Reshape"
      input: "Cast:y:0"
      input: "stack:output:0"
      attr {
        key: "T"
        value {
          type: DT_HALF
        }
      }
      attr {
        key: "Tshape"
        value {
          type: DT_INT32
        }
      }
      attr {
        key: "_output_shapes"
        value {
          list {
            shape {
              dim {
                size: 20
              }
              dim {
                size: 20
              }
              dim {
                size: 1
              }
            }
          }
        }
      }
    }
    node_def {
      name: "Identity"
      op: "Identity"
      input: "Reshape:output:0"
      attr {
        key: "T"
        value {
          type: DT_HALF
        }
      }
      attr {
        key: "_output_shapes"
        value {
          list {
            shape {
              dim {
                size: 20
              }
              dim {
                size: 20
              }
              dim {
                size: 1
              }
            }
          }
        }
      }
    }
    node_def {
      name: "Identity_1"
      op: "Identity"
      input: "ParseSingleExample/ParseSingleExample:dense_values:1"
      attr {
        key: "T"
        value {
          type: DT_INT64
        }
      }
      attr {
        key: "_output_shapes"
        value {
          list {
            shape {
            }
          }
        }
      }
    }
    ret {
      key: "identity"
      value: "Identity:output:0"
    }
    ret {
      key: "identity_1"
      value: "Identity_1:output:0"
    }
    attr {
      key: "_input_shapes"
      value {
        list {
          shape {
          }
        }
      }
    }
    arg_attr {
      value {
        attr {
          key: "_user_specified_name"
          value {
            s: "args_0"
          }
        }
      }
    }
  }
}
versions {
  producer: 38
  min_consumer: 12
}
